<?xml version="1.0"?>
<net name="runtime_gpu_graph" version="11">
	<layers>
		<layer id="0" name="image" type="Input">
			<data shape="1,3,480,640" element_type="u8" execOrder="0" execTimeMcs="0" originalLayersNames="image" outputLayouts="bfyx" outputPrecisions="u8" primitiveType="wait_for_events__u8" runtimePrecision="u8" />
			<output>
				<port id="0" precision="U8">
					<dim>1</dim>
					<dim>3</dim>
					<dim>480</dim>
					<dim>640</dim>
				</port>
			</output>
		</layer>
		<layer id="1" name="depth" type="Input">
			<data shape="1,480,640,1" element_type="f32" execOrder="2" execTimeMcs="0" originalLayersNames="depth" outputLayouts="bfyx" outputPrecisions="f32" primitiveType="wait_for_events__f32" runtimePrecision="f32" />
			<output>
				<port id="0" precision="FP32">
					<dim>1</dim>
					<dim>480</dim>
					<dim>640</dim>
					<dim>1</dim>
				</port>
			</output>
		</layer>
		<layer id="2" name="Convert_6598" type="Reorder">
			<data execOrder="1" execTimeMcs="1260" originalLayersNames="Convert_6598" outputLayouts="bfyx" outputPrecisions="f16" primitiveType="reorder_data__f16" runtimePrecision="f16" />
			<input>
				<port id="0" precision="U8">
					<dim>1</dim>
					<dim>3</dim>
					<dim>480</dim>
					<dim>640</dim>
				</port>
			</input>
			<output>
				<port id="1" precision="FP16">
					<dim>1</dim>
					<dim>3</dim>
					<dim>480</dim>
					<dim>640</dim>
				</port>
			</output>
		</layer>
		<layer id="3" name="__module.model.encoder/aten::upsample_bilinear2d/Interpolate" type="Resample">
			<data execOrder="448" execTimeMcs="105" originalLayersNames="__module.model.encoder/aten::upsample_bilinear2d/Interpolate,Multiply_25659,__module.model.encoder/aten::div/Divide" outputLayouts="bfyx" outputPrecisions="f16" primitiveType="resample_ref__f16" runtimePrecision="f16" />
			<input>
				<port id="0" precision="FP16">
					<dim>1</dim>
					<dim>3</dim>
					<dim>480</dim>
					<dim>640</dim>
				</port>
			</input>
			<output>
				<port id="1" precision="FP16">
					<dim>1</dim>
					<dim>3</dim>
					<dim>420</dim>
					<dim>560</dim>
				</port>
			</output>
		</layer>
		<layer id="4" name="__module.model.encoder.backbone.patch_embed.proj/aten::_convolution/Convolution" type="Convolution">
			<data execOrder="449" execTimeMcs="2731" originalLayersNames="__module.model.encoder.backbone.patch_embed.proj/aten::_convolution/Convolution,__module.model.encoder.backbone.patch_embed.proj/aten::_convolution/Add" outputLayouts="byxf" outputPrecisions="f16" primitiveType="jit:ir__f16" runtimePrecision="f16" />
			<input>
				<port id="0" precision="FP16">
					<dim>1</dim>
					<dim>3</dim>
					<dim>420</dim>
					<dim>560</dim>
				</port>
			</input>
			<output>
				<port id="1" precision="FP16">
					<dim>1</dim>
					<dim>1024</dim>
					<dim>30</dim>
					<dim>40</dim>
				</port>
			</output>
		</layer>
		<layer id="5" name="__module.model.encoder.backbone.patch_embed/aten::transpose/Transpose_with_updated_order" type="Permute">
			<data execOrder="450" execTimeMcs="not_executed" originalLayersNames="__module.model.encoder.backbone.patch_embed/aten::transpose/Transpose_with_updated_order" outputLayouts="bfyx" outputPrecisions="f16" primitiveType="undef" runtimePrecision="f16" />
			<input>
				<port id="0" precision="FP16">
					<dim>1</dim>
					<dim>1024</dim>
					<dim>30</dim>
					<dim>40</dim>
				</port>
			</input>
			<output>
				<port id="1" precision="FP16">
					<dim>1</dim>
					<dim>30</dim>
					<dim>40</dim>
					<dim>1024</dim>
				</port>
			</output>
		</layer>
		<layer id="6" name="__module.model.encoder.backbone.patch_embed/aten::flatten/Reshape_sinked_after_transpose" type="Reshape">
			<data execOrder="451" execTimeMcs="not_executed" originalLayersNames="__module.model.encoder.backbone.patch_embed/aten::flatten/Reshape_sinked_after_transpose" outputLayouts="bfyx" outputPrecisions="f16" primitiveType="undef" runtimePrecision="f16" />
			<input>
				<port id="0" precision="FP16">
					<dim>1</dim>
					<dim>30</dim>
					<dim>40</dim>
					<dim>1024</dim>
				</port>
			</input>
			<output>
				<port id="1" precision="FP16">
					<dim>1</dim>
					<dim>1200</dim>
					<dim>1024</dim>
					<dim>1</dim>
				</port>
			</output>
		</layer>
		<layer id="7" name="__module.model.encoder/aten::add/Add_2" type="Eltwise">
			<data execOrder="452" execTimeMcs="1056" originalLayersNames="__module.model.encoder/aten::add/Add_2" outputLayouts="bfyx" outputPrecisions="f16" primitiveType="eltwise_simple_vload8__f16" runtimePrecision="f16" />
			<input>
				<port id="0" precision="FP16">
					<dim>1</dim>
					<dim>1200</dim>
					<dim>1024</dim>
					<dim>1</dim>
				</port>
			</input>
			<output>
				<port id="1" precision="FP16">
					<dim>1</dim>
					<dim>1200</dim>
					<dim>1024</dim>
					<dim>1</dim>
				</port>
			</output>
		</layer>
		<layer id="8" name="__module.model.encoder/aten::select/Gather" type="Reshape">
			<data execOrder="453" execTimeMcs="not_executed" originalLayersNames="__module.model.encoder/aten::select/Gather" outputLayouts="bfyx" outputPrecisions="f16" primitiveType="undef" runtimePrecision="f16" />
			<input>
				<port id="0" precision="FP16">
					<dim>1</dim>
					<dim>1200</dim>
					<dim>1024</dim>
					<dim>1</dim>
				</port>
			</input>
			<output>
				<port id="1" precision="FP16">
					<dim>1200</dim>
					<dim>1024</dim>
					<dim>1</dim>
					<dim>1</dim>
				</port>
			</output>
		</layer>
		<layer id="9" name="Convert_16823" type="Reorder">
			<data execOrder="3" execTimeMcs="338" originalLayersNames="Convert_16823" outputLayouts="bfyx" outputPrecisions="f16" primitiveType="reorder_data_fast_b1__f32" runtimePrecision="f32" />
			<input>
				<port id="0" precision="FP32">
					<dim>1</dim>
					<dim>480</dim>
					<dim>640</dim>
					<dim>1</dim>
				</port>
			</input>
			<output>
				<port id="1" precision="FP16">
					<dim>1</dim>
					<dim>480</dim>
					<dim>640</dim>
					<dim>1</dim>
				</port>
			</output>
		</layer>
		<layer id="10" name="aten::unsqueeze/Unsqueeze" type="Reshape">
			<data execOrder="4" execTimeMcs="not_executed" originalLayersNames="aten::unsqueeze/Unsqueeze" outputLayouts="bfyx" outputPrecisions="f16" primitiveType="undef" runtimePrecision="f16" />
			<input>
				<port id="0" precision="FP16">
					<dim>1</dim>
					<dim>480</dim>
					<dim>640</dim>
					<dim>1</dim>
				</port>
			</input>
			<output>
				<port id="1" precision="FP16">
					<dim>1</dim>
					<dim>1</dim>
					<dim>480</dim>
					<dim>640</dim>
				</port>
			</output>
		</layer>
		<layer id="11" name="__module.model.encoder/aten::upsample_nearest2d/Interpolate" type="Resample">
			<data execOrder="5" execTimeMcs="11" originalLayersNames="__module.model.encoder/aten::upsample_nearest2d/Interpolate" outputLayouts="bfyx" outputPrecisions="f16" primitiveType="resample_ref__f16" runtimePrecision="f16" />
			<input>
				<port id="0" precision="FP16">
					<dim>1</dim>
					<dim>1</dim>
					<dim>480</dim>
					<dim>640</dim>
				</port>
			</input>
			<output>
				<port id="1" precision="FP16">
					<dim>1</dim>
					<dim>1</dim>
					<dim>420</dim>
					<dim>560</dim>
				</port>
				<port id="2" precision="FP16">
					<dim>1</dim>
					<dim>1</dim>
					<dim>420</dim>
					<dim>560</dim>
				</port>
			</output>
		</layer>
		<layer id="12" name="__module.model.encoder/aten::isinf/IsInf" type="Eltwise">
			<data execOrder="6" execTimeMcs="4" originalLayersNames="__module.model.encoder/aten::isinf/IsInf" outputLayouts="bfyx" outputPrecisions="u8" primitiveType="generic_eltwise_ref__f16" runtimePrecision="f16" />
			<input>
				<port id="0" precision="FP16">
					<dim>1</dim>
					<dim>1</dim>
					<dim>420</dim>
					<dim>560</dim>
				</port>
			</input>
			<output>
				<port id="1" precision="U8">
					<dim>1</dim>
					<dim>1</dim>
					<dim>420</dim>
					<dim>560</dim>
				</port>
			</output>
		</layer>
		<layer id="13" name="__module.model.encoder/aten::index_put_/Select" type="select">
			<data execOrder="117" execTimeMcs="9" originalLayersNames="__module.model.encoder/aten::index_put_/Select" outputLayouts="bfyx" outputPrecisions="f16" primitiveType="select_gpu_ref__u8" runtimePrecision="u8" />
			<input>
				<port id="0" precision="U8">
					<dim>1</dim>
					<dim>1</dim>
					<dim>420</dim>
					<dim>560</dim>
				</port>
				<port id="1" precision="FP16">
					<dim>1</dim>
					<dim>1</dim>
					<dim>420</dim>
					<dim>560</dim>
				</port>
			</input>
			<output>
				<port id="2" precision="FP16">
					<dim>1</dim>
					<dim>1</dim>
					<dim>420</dim>
					<dim>560</dim>
				</port>
				<port id="3" precision="FP16">
					<dim>1</dim>
					<dim>1</dim>
					<dim>420</dim>
					<dim>560</dim>
				</port>
			</output>
		</layer>
		<layer id="14" name="__module.model.encoder/aten::isnan/IsNaN" type="Eltwise">
			<data execOrder="118" execTimeMcs="108" originalLayersNames="__module.model.encoder/aten::isnan/IsNaN" outputLayouts="bfyx" outputPrecisions="u8" primitiveType="generic_eltwise_ref__f16" runtimePrecision="f16" />
			<input>
				<port id="0" precision="FP16">
					<dim>1</dim>
					<dim>1</dim>
					<dim>420</dim>
					<dim>560</dim>
				</port>
			</input>
			<output>
				<port id="1" precision="U8">
					<dim>1</dim>
					<dim>1</dim>
					<dim>420</dim>
					<dim>560</dim>
				</port>
			</output>
		</layer>
		<layer id="15" name="__module.model.encoder/aten::index_put_/Select_1" type="select">
			<data execOrder="119" execTimeMcs="1348" originalLayersNames="__module.model.encoder/aten::index_put_/Select_1" outputLayouts="bfyx" outputPrecisions="f16" primitiveType="select_gpu_ref__u8" runtimePrecision="u8" />
			<input>
				<port id="0" precision="U8">
					<dim>1</dim>
					<dim>1</dim>
					<dim>420</dim>
					<dim>560</dim>
				</port>
				<port id="1" precision="FP16">
					<dim>1</dim>
					<dim>1</dim>
					<dim>420</dim>
					<dim>560</dim>
				</port>
			</input>
			<output>
				<port id="2" precision="FP16">
					<dim>1</dim>
					<dim>1</dim>
					<dim>420</dim>
					<dim>560</dim>
				</port>
				<port id="3" precision="FP16">
					<dim>1</dim>
					<dim>1</dim>
					<dim>420</dim>
					<dim>560</dim>
				</port>
			</output>
		</layer>
		<layer id="16" name="__module.model.encoder/aten::gt/Greater" type="Eltwise">
			<data execOrder="380" execTimeMcs="27" originalLayersNames="__module.model.encoder/aten::gt/Greater" outputLayouts="bfyx" outputPrecisions="u8" primitiveType="generic_eltwise_ref__f16" runtimePrecision="f16" />
			<input>
				<port id="0" precision="FP16">
					<dim>1</dim>
					<dim>1</dim>
					<dim>420</dim>
					<dim>560</dim>
				</port>
			</input>
			<output>
				<port id="1" precision="U8">
					<dim>1</dim>
					<dim>1</dim>
					<dim>420</dim>
					<dim>560</dim>
				</port>
				<port id="2" precision="U8">
					<dim>1</dim>
					<dim>1</dim>
					<dim>420</dim>
					<dim>560</dim>
				</port>
			</output>
		</layer>
		<layer id="17" name="__module.model.encoder/aten::bitwise_not/BitwiseNot" type="Activation">
			<data execOrder="381" execTimeMcs="4" originalLayersNames="__module.model.encoder/aten::bitwise_not/BitwiseNot" outputLayouts="bfyx" outputPrecisions="u8" primitiveType="activation_opt__u8" runtimePrecision="u8" />
			<input>
				<port id="0" precision="U8">
					<dim>1</dim>
					<dim>1</dim>
					<dim>420</dim>
					<dim>560</dim>
				</port>
			</input>
			<output>
				<port id="1" precision="U8">
					<dim>1</dim>
					<dim>1</dim>
					<dim>420</dim>
					<dim>560</dim>
				</port>
			</output>
		</layer>
		<layer id="18" name="__module.model.encoder/aten::to/Convert_2" type="Reorder">
			<data execOrder="382" execTimeMcs="8" originalLayersNames="__module.model.encoder/aten::to/Convert_2" outputLayouts="bfyx" outputPrecisions="f16" primitiveType="reorder_data__f16" runtimePrecision="f16" />
			<input>
				<port id="0" precision="U8">
					<dim>1</dim>
					<dim>1</dim>
					<dim>420</dim>
					<dim>560</dim>
				</port>
			</input>
			<output>
				<port id="1" precision="FP16">
					<dim>1</dim>
					<dim>1</dim>
					<dim>420</dim>
					<dim>560</dim>
				</port>
			</output>
		</layer>
		<layer id="19" name="__module.model.encoder/aten::mul/Multiply_4" type="Eltwise">
			<data execOrder="383" execTimeMcs="17" originalLayersNames="__module.model.encoder/aten::mul/Multiply_4,__module.model.encoder/aten::log/Log" outputLayouts="bfyx" outputPrecisions="f16" primitiveType="eltwise_simple_vload8__f16" runtimePrecision="f16" />
			<input>
				<port id="0" precision="FP16">
					<dim>1</dim>
					<dim>1</dim>
					<dim>420</dim>
					<dim>560</dim>
				</port>
				<port id="1" precision="FP16">
					<dim>1</dim>
					<dim>1</dim>
					<dim>420</dim>
					<dim>560</dim>
				</port>
			</input>
			<output>
				<port id="2" precision="FP16">
					<dim>1</dim>
					<dim>1</dim>
					<dim>420</dim>
					<dim>560</dim>
				</port>
			</output>
		</layer>
		<layer id="20" name="__module.model.encoder/aten::index_put_/Select_2" type="select">
			<data execOrder="384" execTimeMcs="326" originalLayersNames="__module.model.encoder/aten::index_put_/Select_2" outputLayouts="bfyx" outputPrecisions="f16" primitiveType="select_gpu_ref__u8" runtimePrecision="u8" />
			<input>
				<port id="0" precision="U8">
					<dim>1</dim>
					<dim>1</dim>
					<dim>420</dim>
					<dim>560</dim>
				</port>
				<port id="1" precision="FP16">
					<dim>1</dim>
					<dim>1</dim>
					<dim>420</dim>
					<dim>560</dim>
				</port>
			</input>
			<output>
				<port id="2" precision="FP16">
					<dim>1</dim>
					<dim>1</dim>
					<dim>420</dim>
					<dim>560</dim>
				</port>
				<port id="3" precision="FP16">
					<dim>1</dim>
					<dim>1</dim>
					<dim>420</dim>
					<dim>560</dim>
				</port>
			</output>
		</layer>
		<layer id="21" name="__module.model.encoder/aten::isfinite/IsFinite" type="Eltwise">
			<data execOrder="385" execTimeMcs="5" originalLayersNames="__module.model.encoder/aten::isfinite/IsFinite" outputLayouts="bfyx" outputPrecisions="u8" primitiveType="generic_eltwise_ref__f16" runtimePrecision="f16" />
			<input>
				<port id="0" precision="FP16">
					<dim>1</dim>
					<dim>1</dim>
					<dim>420</dim>
					<dim>560</dim>
				</port>
			</input>
			<output>
				<port id="1" precision="U8">
					<dim>1</dim>
					<dim>1</dim>
					<dim>420</dim>
					<dim>560</dim>
				</port>
			</output>
		</layer>
		<layer id="22" name="__module.model.encoder/aten::where/Select" type="select">
			<data execOrder="386" execTimeMcs="13" originalLayersNames="__module.model.encoder/aten::where/Select" outputLayouts="bfyx" outputPrecisions="f16" primitiveType="select_gpu_ref__u8" runtimePrecision="u8" />
			<input>
				<port id="0" precision="U8">
					<dim>1</dim>
					<dim>1</dim>
					<dim>420</dim>
					<dim>560</dim>
				</port>
				<port id="1" precision="FP16">
					<dim>1</dim>
					<dim>1</dim>
					<dim>420</dim>
					<dim>560</dim>
				</port>
			</input>
			<output>
				<port id="2" precision="FP16">
					<dim>1</dim>
					<dim>1</dim>
					<dim>420</dim>
					<dim>560</dim>
				</port>
			</output>
		</layer>
		<layer id="23" name="__module.model.encoder/aten::where/Select_0_reorder_0" type="Reorder">
			<data execOrder="387" execTimeMcs="not_executed" originalLayersNames="" outputLayouts="byxf" outputPrecisions="f16" primitiveType="gpu:direct_copy__f16" runtimePrecision="f16" />
			<input>
				<port id="0" precision="FP16">
					<dim>1</dim>
					<dim>1</dim>
					<dim>420</dim>
					<dim>560</dim>
				</port>
			</input>
			<output>
				<port id="1" precision="FP16">
					<dim>1</dim>
					<dim>1</dim>
					<dim>420</dim>
					<dim>560</dim>
				</port>
			</output>
		</layer>
		<layer id="24" name="__module.model.encoder.backbone.depth_patch_embed.proj/aten::_convolution/Convolution" type="Convolution">
			<data execOrder="388" execTimeMcs="5291" originalLayersNames="__module.model.encoder.backbone.depth_patch_embed.proj/aten::_convolution/Convolution,__module.model.encoder.backbone.depth_patch_embed.proj/aten::_convolution/Add" outputLayouts="byxf" outputPrecisions="f16" primitiveType="jit:ir__f16" runtimePrecision="f16" />
			<input>
				<port id="0" precision="FP16">
					<dim>1</dim>
					<dim>1</dim>
					<dim>420</dim>
					<dim>560</dim>
				</port>
			</input>
			<output>
				<port id="1" precision="FP16">
					<dim>1</dim>
					<dim>1024</dim>
					<dim>30</dim>
					<dim>40</dim>
				</port>
			</output>
		</layer>
		<layer id="25" name="__module.model.encoder.backbone.depth_patch_embed/aten::transpose/Transpose_with_updated_order" type="Permute">
			<data execOrder="389" execTimeMcs="not_executed" originalLayersNames="__module.model.encoder.backbone.depth_patch_embed/aten::transpose/Transpose_with_updated_order" outputLayouts="bfyx" outputPrecisions="f16" primitiveType="undef" runtimePrecision="f16" />
			<input>
				<port id="0" precision="FP16">
					<dim>1</dim>
					<dim>1024</dim>
					<dim>30</dim>
					<dim>40</dim>
				</port>
			</input>
			<output>
				<port id="1" precision="FP16">
					<dim>1</dim>
					<dim>30</dim>
					<dim>40</dim>
					<dim>1024</dim>
				</port>
			</output>
		</layer>
		<layer id="26" name="__module.model.encoder.backbone.depth_patch_embed/aten::flatten/Reshape_sinked_after_transpose" type="Reshape">
			<data execOrder="390" execTimeMcs="not_executed" originalLayersNames="__module.model.encoder.backbone.depth_patch_embed/aten::flatten/Reshape_sinked_after_transpose" outputLayouts="bfyx" outputPrecisions="f16" primitiveType="undef" runtimePrecision="f16" />
			<input>
				<port id="0" precision="FP16">
					<dim>1</dim>
					<dim>30</dim>
					<dim>40</dim>
					<dim>1024</dim>
				</port>
			</input>
			<output>
				<port id="1" precision="FP16">
					<dim>1</dim>
					<dim>1200</dim>
					<dim>1024</dim>
					<dim>1</dim>
				</port>
			</output>
		</layer>
		<layer id="27" name="__module.model.encoder/aten::add/Add_4" type="Eltwise">
			<data execOrder="391" execTimeMcs="82" originalLayersNames="__module.model.encoder/aten::add/Add_4" outputLayouts="bfyx" outputPrecisions="f16" primitiveType="eltwise_simple_vload8__f16" runtimePrecision="f16" />
			<input>
				<port id="0" precision="FP16">
					<dim>1</dim>
					<dim>1200</dim>
					<dim>1024</dim>
					<dim>1</dim>
				</port>
			</input>
			<output>
				<port id="1" precision="FP16">
					<dim>1</dim>
					<dim>1200</dim>
					<dim>1024</dim>
					<dim>1</dim>
				</port>
			</output>
		</layer>
		<layer id="28" name="__module.model.encoder/aten::select/Gather_1" type="Reshape">
			<data execOrder="392" execTimeMcs="not_executed" originalLayersNames="__module.model.encoder/aten::select/Gather_1" outputLayouts="bfyx" outputPrecisions="f16" primitiveType="undef" runtimePrecision="f16" />
			<input>
				<port id="0" precision="FP16">
					<dim>1</dim>
					<dim>1200</dim>
					<dim>1024</dim>
					<dim>1</dim>
				</port>
			</input>
			<output>
				<port id="1" precision="FP16">
					<dim>1200</dim>
					<dim>1024</dim>
					<dim>1</dim>
					<dim>1</dim>
				</port>
			</output>
		</layer>
		<layer id="29" name="__module.model.encoder/aten::cat/Concat" type="Concat">
			<data execOrder="454" execTimeMcs="650" originalLayersNames="__module.model.encoder/aten::cat/Concat" outputLayouts="bfyx" outputPrecisions="f16" primitiveType="ocl:simple:reusable__f16" runtimePrecision="f16" />
			<input>
				<port id="0" precision="FP16">
					<dim>1200</dim>
					<dim>1024</dim>
					<dim>1</dim>
					<dim>1</dim>
				</port>
				<port id="1" precision="FP16">
					<dim>1200</dim>
					<dim>1024</dim>
					<dim>1</dim>
					<dim>1</dim>
				</port>
			</input>
			<output>
				<port id="2" precision="FP16">
					<dim>2401</dim>
					<dim>1024</dim>
					<dim>1</dim>
					<dim>1</dim>
				</port>
			</output>
		</layer>
		<layer id="30" name="__module.model.encoder/aten::unsqueeze/Unsqueeze" type="Reshape">
			<data execOrder="455" execTimeMcs="not_executed" originalLayersNames="__module.model.encoder/aten::unsqueeze/Unsqueeze" outputLayouts="bfyx" outputPrecisions="f16" primitiveType="undef" runtimePrecision="f16" />
			<input>
				<port id="0" precision="FP16">
					<dim>2401</dim>
					<dim>1024</dim>
					<dim>1</dim>
					<dim>1</dim>
				</port>
			</input>
			<output>
				<port id="1" precision="FP16">
					<dim>1</dim>
					<dim>2401</dim>
					<dim>1024</dim>
					<dim>1</dim>
				</port>
				<port id="2" precision="FP16">
					<dim>1</dim>
					<dim>2401</dim>
					<dim>1024</dim>
					<dim>1</dim>
				</port>
			</output>
		</layer>
		<layer id="31" name="__module.model.encoder.backbone.blocks.0.norm1/aten::layer_norm/MVN" type="MVN">
			<data execOrder="456" execTimeMcs="690" originalLayersNames="__module.model.encoder.backbone.blocks.0.norm1/aten::layer_norm/MVN,__module.model.encoder.backbone.blocks.0.norm1/aten::layer_norm/Multiply_1,__module.model.encoder.backbone.blocks.0.norm1/aten::layer_norm/Add" outputLayouts="bfyx" outputPrecisions="f16" primitiveType="mvn_gpu_bfyx_opt__f16" runtimePrecision="f16" />
			<input>
				<port id="0" precision="FP16">
					<dim>1</dim>
					<dim>2401</dim>
					<dim>1024</dim>
					<dim>1</dim>
				</port>
			</input>
			<output>
				<port id="1" precision="FP16">
					<dim>1</dim>
					<dim>2401</dim>
					<dim>1024</dim>
					<dim>1</dim>
				</port>
			</output>
		</layer>
		<layer id="32" name="__module.model.encoder.backbone.blocks.0.attn.qkv/aten::linear/MatMul" type="FullyConnected">
			<data execOrder="457" execTimeMcs="3376" originalLayersNames="__module.model.encoder.backbone.blocks.0.attn.qkv/aten::linear/MatMul,__module.model.encoder.backbone.blocks.0.attn.qkv/aten::linear/Add" outputLayouts="bfyx" outputPrecisions="f16" primitiveType="jit:gemm:any__f16" runtimePrecision="f16" />
			<input>
				<port id="0" precision="FP16">
					<dim>1</dim>
					<dim>2401</dim>
					<dim>1024</dim>
					<dim>1</dim>
				</port>
			</input>
			<output>
				<port id="1" precision="FP16">
					<dim>1</dim>
					<dim>2401</dim>
					<dim>3072</dim>
					<dim>1</dim>
				</port>
			</output>
		</layer>
		<layer id="33" name="__module.model.encoder.backbone.blocks.0.attn/aten::reshape/Reshape_reorder" type="Reorder">
			<data execOrder="458" execTimeMcs="not_executed" originalLayersNames="__module.model.encoder.backbone.blocks.0.attn/aten::reshape/Reshape" outputLayouts="bfzyx" outputPrecisions="f16" primitiveType="undef" runtimePrecision="f16" />
			<input>
				<port id="0" precision="FP16">
					<dim>1</dim>
					<dim>2401</dim>
					<dim>3072</dim>
					<dim>1</dim>
				</port>
			</input>
			<output>
				<port id="1" precision="FP16">
					<dim>1</dim>
					<dim>2401</dim>
					<dim>1</dim>
					<dim>3072</dim>
					<dim>1</dim>
				</port>
			</output>
		</layer>
		<layer id="34" name="__module.model.encoder.backbone.blocks.0.attn/aten::reshape/Reshape" type="Reshape">
			<data execOrder="459" execTimeMcs="not_executed" originalLayersNames="__module.model.encoder.backbone.blocks.0.attn/aten::reshape/Reshape" outputLayouts="bfzyx" outputPrecisions="f16" primitiveType="undef" runtimePrecision="f16" />
			<input>
				<port id="0" precision="FP16">
					<dim>1</dim>
					<dim>2401</dim>
					<dim>1</dim>
					<dim>3072</dim>
					<dim>1</dim>
				</port>
			</input>
			<output>
				<port id="1" precision="FP16">
					<dim>1</dim>
					<dim>2401</dim>
					<dim>3</dim>
					<dim>16</dim>
					<dim>64</dim>
				</port>
			</output>
		</layer>
		<layer id="35" name="__module.model.encoder.backbone.blocks.0.attn/aten::permute/Transpose" type="Permute">
			<data execOrder="460" execTimeMcs="2781" originalLayersNames="__module.model.encoder.backbone.blocks.0.attn/aten::permute/Transpose" outputLayouts="bfzyx" outputPrecisions="f16" primitiveType="permute_ref__f16" runtimePrecision="f16" />
			<input>
				<port id="0" precision="FP16">
					<dim>1</dim>
					<dim>2401</dim>
					<dim>3</dim>
					<dim>16</dim>
					<dim>64</dim>
				</port>
			</input>
			<output>
				<port id="1" precision="FP16">
					<dim>3</dim>
					<dim>1</dim>
					<dim>16</dim>
					<dim>2401</dim>
					<dim>64</dim>
				</port>
				<port id="2" precision="FP16">
					<dim>3</dim>
					<dim>1</dim>
					<dim>16</dim>
					<dim>2401</dim>
					<dim>64</dim>
				</port>
				<port id="3" precision="FP16">
					<dim>3</dim>
					<dim>1</dim>
					<dim>16</dim>
					<dim>2401</dim>
					<dim>64</dim>
				</port>
			</output>
		</layer>
		<layer id="36" name="__module.model.encoder.backbone.blocks.0.attn/prim::ListUnpack/Split.out0" type="Crop">
			<data execOrder="467" execTimeMcs="not_executed" originalLayersNames="__module.model.encoder.backbone.blocks.0.attn/prim::ListUnpack/Split" outputLayouts="bfzyx" outputPrecisions="f16" primitiveType="undef" runtimePrecision="f16" />
			<input>
				<port id="0" precision="FP16">
					<dim>3</dim>
					<dim>1</dim>
					<dim>16</dim>
					<dim>2401</dim>
					<dim>64</dim>
				</port>
			</input>
			<output>
				<port id="1" precision="FP16">
					<dim>1</dim>
					<dim>1</dim>
					<dim>16</dim>
					<dim>2401</dim>
					<dim>64</dim>
				</port>
			</output>
		</layer>
		<layer id="37" name="__module.model.encoder.backbone.blocks.0.attn/prim::ListUnpack/Squeeze_reorder" type="Reorder">
			<data execOrder="468" execTimeMcs="941" originalLayersNames="__module.model.encoder.backbone.blocks.0.attn/prim::ListUnpack/Squeeze" outputLayouts="bfyx" outputPrecisions="f16" primitiveType="reorder_data_fast_b1__f16" runtimePrecision="f16" />
			<input>
				<port id="0" precision="FP16">
					<dim>1</dim>
					<dim>1</dim>
					<dim>16</dim>
					<dim>2401</dim>
					<dim>64</dim>
				</port>
			</input>
			<output>
				<port id="1" precision="FP16">
					<dim>1</dim>
					<dim>1</dim>
					<dim>38416</dim>
					<dim>64</dim>
				</port>
			</output>
		</layer>
		<layer id="38" name="__module.model.encoder.backbone.blocks.0.attn/prim::ListUnpack/Squeeze" type="Reshape">
			<data execOrder="469" execTimeMcs="not_executed" originalLayersNames="__module.model.encoder.backbone.blocks.0.attn/prim::ListUnpack/Squeeze" outputLayouts="bfyx" outputPrecisions="f16" primitiveType="undef" runtimePrecision="f16" />
			<input>
				<port id="0" precision="FP16">
					<dim>1</dim>
					<dim>1</dim>
					<dim>38416</dim>
					<dim>64</dim>
				</port>
			</input>
			<output>
				<port id="1" precision="FP16">
					<dim>1</dim>
					<dim>16</dim>
					<dim>2401</dim>
					<dim>64</dim>
				</port>
			</output>
		</layer>
		<layer id="39" name="__module.model.encoder.backbone.blocks.0.attn/prim::ListUnpack/Split.out1" type="Crop">
			<data execOrder="464" execTimeMcs="not_executed" originalLayersNames="__module.model.encoder.backbone.blocks.0.attn/prim::ListUnpack/Split" outputLayouts="bfzyx" outputPrecisions="f16" primitiveType="undef" runtimePrecision="f16" />
			<input>
				<port id="0" precision="FP16">
					<dim>3</dim>
					<dim>1</dim>
					<dim>16</dim>
					<dim>2401</dim>
					<dim>64</dim>
				</port>
			</input>
			<output>
				<port id="1" precision="FP16">
					<dim>1</dim>
					<dim>1</dim>
					<dim>16</dim>
					<dim>2401</dim>
					<dim>64</dim>
				</port>
			</output>
		</layer>
		<layer id="40" name="__module.model.encoder.backbone.blocks.0.attn/prim::ListUnpack/Squeeze_0_reorder" type="Reorder">
			<data execOrder="465" execTimeMcs="201" originalLayersNames="__module.model.encoder.backbone.blocks.0.attn/prim::ListUnpack/Squeeze_0" outputLayouts="bfyx" outputPrecisions="f16" primitiveType="reorder_data_fast_b1__f16" runtimePrecision="f16" />
			<input>
				<port id="0" precision="FP16">
					<dim>1</dim>
					<dim>1</dim>
					<dim>16</dim>
					<dim>2401</dim>
					<dim>64</dim>
				</port>
			</input>
			<output>
				<port id="1" precision="FP16">
					<dim>1</dim>
					<dim>1</dim>
					<dim>38416</dim>
					<dim>64</dim>
				</port>
			</output>
		</layer>
		<layer id="41" name="__module.model.encoder.backbone.blocks.0.attn/prim::ListUnpack/Squeeze_0" type="Reshape">
			<data execOrder="466" execTimeMcs="not_executed" originalLayersNames="__module.model.encoder.backbone.blocks.0.attn/prim::ListUnpack/Squeeze_0" outputLayouts="bfyx" outputPrecisions="f16" primitiveType="undef" runtimePrecision="f16" />
			<input>
				<port id="0" precision="FP16">
					<dim>1</dim>
					<dim>1</dim>
					<dim>38416</dim>
					<dim>64</dim>
				</port>
			</input>
			<output>
				<port id="1" precision="FP16">
					<dim>1</dim>
					<dim>16</dim>
					<dim>2401</dim>
					<dim>64</dim>
				</port>
			</output>
		</layer>
		<layer id="42" name="__module.model.encoder.backbone.blocks.0.attn/prim::ListUnpack/Split.out2" type="Crop">
			<data execOrder="461" execTimeMcs="not_executed" originalLayersNames="__module.model.encoder.backbone.blocks.0.attn/prim::ListUnpack/Split" outputLayouts="bfzyx" outputPrecisions="f16" primitiveType="undef" runtimePrecision="f16" />
			<input>
				<port id="0" precision="FP16">
					<dim>3</dim>
					<dim>1</dim>
					<dim>16</dim>
					<dim>2401</dim>
					<dim>64</dim>
				</port>
			</input>
			<output>
				<port id="1" precision="FP16">
					<dim>1</dim>
					<dim>1</dim>
					<dim>16</dim>
					<dim>2401</dim>
					<dim>64</dim>
				</port>
			</output>
		</layer>
		<layer id="43" name="__module.model.encoder.backbone.blocks.0.attn/prim::ListUnpack/Squeeze_1_reorder" type="Reorder">
			<data execOrder="462" execTimeMcs="349" originalLayersNames="__module.model.encoder.backbone.blocks.0.attn/prim::ListUnpack/Squeeze_1" outputLayouts="bfyx" outputPrecisions="f16" primitiveType="reorder_data_fast_b1__f16" runtimePrecision="f16" />
			<input>
				<port id="0" precision="FP16">
					<dim>1</dim>
					<dim>1</dim>
					<dim>16</dim>
					<dim>2401</dim>
					<dim>64</dim>
				</port>
			</input>
			<output>
				<port id="1" precision="FP16">
					<dim>1</dim>
					<dim>1</dim>
					<dim>38416</dim>
					<dim>64</dim>
				</port>
			</output>
		</layer>
		<layer id="44" name="__module.model.encoder.backbone.blocks.0.attn/prim::ListUnpack/Squeeze_1" type="Reshape">
			<data execOrder="463" execTimeMcs="not_executed" originalLayersNames="__module.model.encoder.backbone.blocks.0.attn/prim::ListUnpack/Squeeze_1" outputLayouts="bfyx" outputPrecisions="f16" primitiveType="undef" runtimePrecision="f16" />
			<input>
				<port id="0" precision="FP16">
					<dim>1</dim>
					<dim>1</dim>
					<dim>38416</dim>
					<dim>64</dim>
				</port>
			</input>
			<output>
				<port id="1" precision="FP16">
					<dim>1</dim>
					<dim>16</dim>
					<dim>2401</dim>
					<dim>64</dim>
				</port>
			</output>
		</layer>
		<layer id="45" name="__module.model.encoder.backbone.blocks.0.attn/aten::scaled_dot_product_attention/ScaledDotProductAttention" type="scaled_dot_product_attention">
			<data execOrder="470" execTimeMcs="8821" originalLayersNames="__module.model.encoder.backbone.blocks.0.attn/aten::scaled_dot_product_attention/ScaledDotProductAttention" outputLayouts="bfyx" outputPrecisions="f16" primitiveType="ocl::sdpa::opt__f16" runtimePrecision="f16" />
			<input>
				<port id="0" precision="FP16">
					<dim>1</dim>
					<dim>16</dim>
					<dim>2401</dim>
					<dim>64</dim>
				</port>
				<port id="1" precision="FP16">
					<dim>1</dim>
					<dim>16</dim>
					<dim>2401</dim>
					<dim>64</dim>
				</port>
				<port id="2" precision="FP16">
					<dim>1</dim>
					<dim>16</dim>
					<dim>2401</dim>
					<dim>64</dim>
				</port>
			</input>
			<output>
				<port id="3" precision="FP16">
					<dim>1</dim>
					<dim>16</dim>
					<dim>2401</dim>
					<dim>64</dim>
				</port>
			</output>
		</layer>
		<layer id="46" name="__module.model.encoder.backbone.blocks.0.attn/aten::permute/Transpose_1" type="Permute">
			<data execOrder="471" execTimeMcs="124" originalLayersNames="__module.model.encoder.backbone.blocks.0.attn/aten::permute/Transpose_1" outputLayouts="bfyx" outputPrecisions="f16" primitiveType="permute_ref__f16" runtimePrecision="f16" />
			<input>
				<port id="0" precision="FP16">
					<dim>1</dim>
					<dim>16</dim>
					<dim>2401</dim>
					<dim>64</dim>
				</port>
			</input>
			<output>
				<port id="1" precision="FP16">
					<dim>1</dim>
					<dim>2401</dim>
					<dim>16</dim>
					<dim>64</dim>
				</port>
			</output>
		</layer>
		<layer id="47" name="__module.model.encoder.backbone.blocks.0.attn/aten::reshape/Reshape_1" type="Reshape">
			<data execOrder="472" execTimeMcs="not_executed" originalLayersNames="__module.model.encoder.backbone.blocks.0.attn/aten::reshape/Reshape_1" outputLayouts="bfyx" outputPrecisions="f16" primitiveType="undef" runtimePrecision="f16" />
			<input>
				<port id="0" precision="FP16">
					<dim>1</dim>
					<dim>2401</dim>
					<dim>16</dim>
					<dim>64</dim>
				</port>
			</input>
			<output>
				<port id="1" precision="FP16">
					<dim>1</dim>
					<dim>2401</dim>
					<dim>1024</dim>
					<dim>1</dim>
				</port>
			</output>
		</layer>
		<layer id="48" name="Multiply_59630" type="FullyConnected">
			<data execOrder="473" execTimeMcs="591" originalLayersNames="Multiply_59630,__module.model.encoder.backbone.blocks.0.ls1/aten::mul/Multiply,__module.model.encoder.backbone.blocks.0/aten::add/Add" outputLayouts="bfyx" outputPrecisions="f16" primitiveType="jit:gemm:any__f16" runtimePrecision="f16" />
			<input>
				<port id="0" precision="FP16">
					<dim>1</dim>
					<dim>2401</dim>
					<dim>1024</dim>
					<dim>1</dim>
				</port>
				<port id="1" precision="FP16">
					<dim>1</dim>
					<dim>2401</dim>
					<dim>1024</dim>
					<dim>1</dim>
				</port>
			</input>
			<output>
				<port id="2" precision="FP16">
					<dim>1</dim>
					<dim>2401</dim>
					<dim>1024</dim>
					<dim>1</dim>
				</port>
				<port id="3" precision="FP16">
					<dim>1</dim>
					<dim>2401</dim>
					<dim>1024</dim>
					<dim>1</dim>
				</port>
			</output>
		</layer>
		<layer id="49" name="__module.model.encoder.backbone.blocks.0.norm2/aten::layer_norm/MVN" type="MVN">
			<data execOrder="474" execTimeMcs="83" originalLayersNames="__module.model.encoder.backbone.blocks.0.norm2/aten::layer_norm/MVN,__module.model.encoder.backbone.blocks.0.norm2/aten::layer_norm/Multiply_1,__module.model.encoder.backbone.blocks.0.norm2/aten::layer_norm/Add" outputLayouts="bfyx" outputPrecisions="f16" primitiveType="mvn_gpu_bfyx_opt__f16" runtimePrecision="f16" />
			<input>
				<port id="0" precision="FP16">
					<dim>1</dim>
					<dim>2401</dim>
					<dim>1024</dim>
					<dim>1</dim>
				</port>
			</input>
			<output>
				<port id="1" precision="FP16">
					<dim>1</dim>
					<dim>2401</dim>
					<dim>1024</dim>
					<dim>1</dim>
				</port>
			</output>
		</layer>
		<layer id="50" name="__module.model.encoder.backbone.blocks.0.mlp.fc1/aten::linear/MatMul" type="FullyConnected">
			<data execOrder="475" execTimeMcs="7331" originalLayersNames="__module.model.encoder.backbone.blocks.0.mlp.fc1/aten::linear/MatMul,__module.model.encoder.backbone.blocks.0.mlp.fc1/aten::linear/Add,__module.model.encoder.backbone.blocks.0.mlp.act/aten::gelu/Gelu" outputLayouts="bfyx" outputPrecisions="f16" primitiveType="jit:gemm:any__f16" runtimePrecision="f16" />
			<input>
				<port id="0" precision="FP16">
					<dim>1</dim>
					<dim>2401</dim>
					<dim>1024</dim>
					<dim>1</dim>
				</port>
			</input>
			<output>
				<port id="1" precision="FP16">
					<dim>1</dim>
					<dim>2401</dim>
					<dim>4096</dim>
					<dim>1</dim>
				</port>
			</output>
		</layer>
		<layer id="51" name="Multiply_59634" type="FullyConnected">
			<data execOrder="476" execTimeMcs="6576" originalLayersNames="Multiply_59634,__module.model.encoder.backbone.blocks.0.ls2/aten::mul/Multiply,__module.model.encoder.backbone.blocks.0/aten::add/Add_1" outputLayouts="bfyx" outputPrecisions="f16" primitiveType="jit:gemm:any__f16" runtimePrecision="f16" />
			<input>
				<port id="0" precision="FP16">
					<dim>1</dim>
					<dim>2401</dim>
					<dim>4096</dim>
					<dim>1</dim>
				</port>
				<port id="1" precision="FP16">
					<dim>1</dim>
					<dim>2401</dim>
					<dim>1024</dim>
					<dim>1</dim>
				</port>
			</input>
			<output>
				<port id="2" precision="FP16">
					<dim>1</dim>
					<dim>2401</dim>
					<dim>1024</dim>
					<dim>1</dim>
				</port>
				<port id="3" precision="FP16">
					<dim>1</dim>
					<dim>2401</dim>
					<dim>1024</dim>
					<dim>1</dim>
				</port>
			</output>
		</layer>
		<layer id="52" name="__module.model.encoder.backbone.blocks.1.norm1/aten::layer_norm/MVN" type="MVN">
			<data execOrder="477" execTimeMcs="1421" originalLayersNames="__module.model.encoder.backbone.blocks.1.norm1/aten::layer_norm/MVN,__module.model.encoder.backbone.blocks.1.norm1/aten::layer_norm/Multiply_1,__module.model.encoder.backbone.blocks.1.norm1/aten::layer_norm/Add" outputLayouts="bfyx" outputPrecisions="f16" primitiveType="mvn_gpu_bfyx_opt__f16" runtimePrecision="f16" />
			<input>
				<port id="0" precision="FP16">
					<dim>1</dim>
					<dim>2401</dim>
					<dim>1024</dim>
					<dim>1</dim>
				</port>
			</input>
			<output>
				<port id="1" precision="FP16">
					<dim>1</dim>
					<dim>2401</dim>
					<dim>1024</dim>
					<dim>1</dim>
				</port>
			</output>
		</layer>
		<layer id="53" name="__module.model.encoder.backbone.blocks.1.attn.qkv/aten::linear/MatMul" type="FullyConnected">
			<data execOrder="478" execTimeMcs="7628" originalLayersNames="__module.model.encoder.backbone.blocks.1.attn.qkv/aten::linear/MatMul,__module.model.encoder.backbone.blocks.1.attn.qkv/aten::linear/Add" outputLayouts="bfyx" outputPrecisions="f16" primitiveType="jit:gemm:any__f16" runtimePrecision="f16" />
			<input>
				<port id="0" precision="FP16">
					<dim>1</dim>
					<dim>2401</dim>
					<dim>1024</dim>
					<dim>1</dim>
				</port>
			</input>
			<output>
				<port id="1" precision="FP16">
					<dim>1</dim>
					<dim>2401</dim>
					<dim>3072</dim>
					<dim>1</dim>
				</port>
			</output>
		</layer>
		<layer id="54" name="__module.model.encoder.backbone.blocks.1.attn/aten::reshape/Reshape_reorder" type="Reorder">
			<data execOrder="479" execTimeMcs="not_executed" originalLayersNames="__module.model.encoder.backbone.blocks.1.attn/aten::reshape/Reshape" outputLayouts="bfzyx" outputPrecisions="f16" primitiveType="undef" runtimePrecision="f16" />
			<input>
				<port id="0" precision="FP16">
					<dim>1</dim>
					<dim>2401</dim>
					<dim>3072</dim>
					<dim>1</dim>
				</port>
			</input>
			<output>
				<port id="1" precision="FP16">
					<dim>1</dim>
					<dim>2401</dim>
					<dim>1</dim>
					<dim>3072</dim>
					<dim>1</dim>
				</port>
			</output>
		</layer>
		<layer id="55" name="__module.model.encoder.backbone.blocks.1.attn/aten::reshape/Reshape" type="Reshape">
			<data execOrder="480" execTimeMcs="not_executed" originalLayersNames="__module.model.encoder.backbone.blocks.1.attn/aten::reshape/Reshape" outputLayouts="bfzyx" outputPrecisions="f16" primitiveType="undef" runtimePrecision="f16" />
			<input>
				<port id="0" precision="FP16">
					<dim>1</dim>
					<dim>2401</dim>
					<dim>1</dim>
					<dim>3072</dim>
					<dim>1</dim>
				</port>
			</input>
			<output>
				<port id="1" precision="FP16">
					<dim>1</dim>
					<dim>2401</dim>
					<dim>3</dim>
					<dim>16</dim>
					<dim>64</dim>
				</port>
			</output>
		</layer>
		<layer id="56" name="__module.model.encoder.backbone.blocks.1.attn/aten::permute/Transpose" type="Permute">
			<data execOrder="481" execTimeMcs="518" originalLayersNames="__module.model.encoder.backbone.blocks.1.attn/aten::permute/Transpose" outputLayouts="bfzyx" outputPrecisions="f16" primitiveType="permute_ref__f16" runtimePrecision="f16" />
			<input>
				<port id="0" precision="FP16">
					<dim>1</dim>
					<dim>2401</dim>
					<dim>3</dim>
					<dim>16</dim>
					<dim>64</dim>
				</port>
			</input>
			<output>
				<port id="1" precision="FP16">
					<dim>3</dim>
					<dim>1</dim>
					<dim>16</dim>
					<dim>2401</dim>
					<dim>64</dim>
				</port>
				<port id="2" precision="FP16">
					<dim>3</dim>
					<dim>1</dim>
					<dim>16</dim>
					<dim>2401</dim>
					<dim>64</dim>
				</port>
				<port id="3" precision="FP16">
					<dim>3</dim>
					<dim>1</dim>
					<dim>16</dim>
					<dim>2401</dim>
					<dim>64</dim>
				</port>
			</output>
		</layer>
		<layer id="57" name="__module.model.encoder.backbone.blocks.1.attn/prim::ListUnpack/Split.out0" type="Crop">
			<data execOrder="488" execTimeMcs="not_executed" originalLayersNames="__module.model.encoder.backbone.blocks.1.attn/prim::ListUnpack/Split" outputLayouts="bfzyx" outputPrecisions="f16" primitiveType="undef" runtimePrecision="f16" />
			<input>
				<port id="0" precision="FP16">
					<dim>3</dim>
					<dim>1</dim>
					<dim>16</dim>
					<dim>2401</dim>
					<dim>64</dim>
				</port>
			</input>
			<output>
				<port id="1" precision="FP16">
					<dim>1</dim>
					<dim>1</dim>
					<dim>16</dim>
					<dim>2401</dim>
					<dim>64</dim>
				</port>
			</output>
		</layer>
		<layer id="58" name="__module.model.encoder.backbone.blocks.1.attn/prim::ListUnpack/Squeeze_reorder" type="Reorder">
			<data execOrder="489" execTimeMcs="151" originalLayersNames="__module.model.encoder.backbone.blocks.1.attn/prim::ListUnpack/Squeeze" outputLayouts="bfyx" outputPrecisions="f16" primitiveType="reorder_data_fast_b1__f16" runtimePrecision="f16" />
			<input>
				<port id="0" precision="FP16">
					<dim>1</dim>
					<dim>1</dim>
					<dim>16</dim>
					<dim>2401</dim>
					<dim>64</dim>
				</port>
			</input>
			<output>
				<port id="1" precision="FP16">
					<dim>1</dim>
					<dim>1</dim>
					<dim>38416</dim>
					<dim>64</dim>
				</port>
			</output>
		</layer>
		<layer id="59" name="__module.model.encoder.backbone.blocks.1.attn/prim::ListUnpack/Squeeze" type="Reshape">
			<data execOrder="490" execTimeMcs="not_executed" originalLayersNames="__module.model.encoder.backbone.blocks.1.attn/prim::ListUnpack/Squeeze" outputLayouts="bfyx" outputPrecisions="f16" primitiveType="undef" runtimePrecision="f16" />
			<input>
				<port id="0" precision="FP16">
					<dim>1</dim>
					<dim>1</dim>
					<dim>38416</dim>
					<dim>64</dim>
				</port>
			</input>
			<output>
				<port id="1" precision="FP16">
					<dim>1</dim>
					<dim>16</dim>
					<dim>2401</dim>
					<dim>64</dim>
				</port>
			</output>
		</layer>
		<layer id="60" name="__module.model.encoder.backbone.blocks.1.attn/prim::ListUnpack/Split.out1" type="Crop">
			<data execOrder="485" execTimeMcs="not_executed" originalLayersNames="__module.model.encoder.backbone.blocks.1.attn/prim::ListUnpack/Split" outputLayouts="bfzyx" outputPrecisions="f16" primitiveType="undef" runtimePrecision="f16" />
			<input>
				<port id="0" precision="FP16">
					<dim>3</dim>
					<dim>1</dim>
					<dim>16</dim>
					<dim>2401</dim>
					<dim>64</dim>
				</port>
			</input>
			<output>
				<port id="1" precision="FP16">
					<dim>1</dim>
					<dim>1</dim>
					<dim>16</dim>
					<dim>2401</dim>
					<dim>64</dim>
				</port>
			</output>
		</layer>
		<layer id="61" name="__module.model.encoder.backbone.blocks.1.attn/prim::ListUnpack/Squeeze_0_reorder" type="Reorder">
			<data execOrder="486" execTimeMcs="132" originalLayersNames="__module.model.encoder.backbone.blocks.1.attn/prim::ListUnpack/Squeeze_0" outputLayouts="bfyx" outputPrecisions="f16" primitiveType="reorder_data_fast_b1__f16" runtimePrecision="f16" />
			<input>
				<port id="0" precision="FP16">
					<dim>1</dim>
					<dim>1</dim>
					<dim>16</dim>
					<dim>2401</dim>
					<dim>64</dim>
				</port>
			</input>
			<output>
				<port id="1" precision="FP16">
					<dim>1</dim>
					<dim>1</dim>
					<dim>38416</dim>
					<dim>64</dim>
				</port>
			</output>
		</layer>
		<layer id="62" name="__module.model.encoder.backbone.blocks.1.attn/prim::ListUnpack/Squeeze_0" type="Reshape">
			<data execOrder="487" execTimeMcs="not_executed" originalLayersNames="__module.model.encoder.backbone.blocks.1.attn/prim::ListUnpack/Squeeze_0" outputLayouts="bfyx" outputPrecisions="f16" primitiveType="undef" runtimePrecision="f16" />
			<input>
				<port id="0" precision="FP16">
					<dim>1</dim>
					<dim>1</dim>
					<dim>38416</dim>
					<dim>64</dim>
				</port>
			</input>
			<output>
				<port id="1" precision="FP16">
					<dim>1</dim>
					<dim>16</dim>
					<dim>2401</dim>
					<dim>64</dim>
				</port>
			</output>
		</layer>
		<layer id="63" name="__module.model.encoder.backbone.blocks.1.attn/prim::ListUnpack/Split.out2" type="Crop">
			<data execOrder="482" execTimeMcs="not_executed" originalLayersNames="__module.model.encoder.backbone.blocks.1.attn/prim::ListUnpack/Split" outputLayouts="bfzyx" outputPrecisions="f16" primitiveType="undef" runtimePrecision="f16" />
			<input>
				<port id="0" precision="FP16">
					<dim>3</dim>
					<dim>1</dim>
					<dim>16</dim>
					<dim>2401</dim>
					<dim>64</dim>
				</port>
			</input>
			<output>
				<port id="1" precision="FP16">
					<dim>1</dim>
					<dim>1</dim>
					<dim>16</dim>
					<dim>2401</dim>
					<dim>64</dim>
				</port>
			</output>
		</layer>
		<layer id="64" name="__module.model.encoder.backbone.blocks.1.attn/prim::ListUnpack/Squeeze_1_reorder" type="Reorder">
			<data execOrder="483" execTimeMcs="417" originalLayersNames="__module.model.encoder.backbone.blocks.1.attn/prim::ListUnpack/Squeeze_1" outputLayouts="bfyx" outputPrecisions="f16" primitiveType="reorder_data_fast_b1__f16" runtimePrecision="f16" />
			<input>
				<port id="0" precision="FP16">
					<dim>1</dim>
					<dim>1</dim>
					<dim>16</dim>
					<dim>2401</dim>
					<dim>64</dim>
				</port>
			</input>
			<output>
				<port id="1" precision="FP16">
					<dim>1</dim>
					<dim>1</dim>
					<dim>38416</dim>
					<dim>64</dim>
				</port>
			</output>
		</layer>
		<layer id="65" name="__module.model.encoder.backbone.blocks.1.attn/prim::ListUnpack/Squeeze_1" type="Reshape">
			<data execOrder="484" execTimeMcs="not_executed" originalLayersNames="__module.model.encoder.backbone.blocks.1.attn/prim::ListUnpack/Squeeze_1" outputLayouts="bfyx" outputPrecisions="f16" primitiveType="undef" runtimePrecision="f16" />
			<input>
				<port id="0" precision="FP16">
					<dim>1</dim>
					<dim>1</dim>
					<dim>38416</dim>
					<dim>64</dim>
				</port>
			</input>
			<output>
				<port id="1" precision="FP16">
					<dim>1</dim>
					<dim>16</dim>
					<dim>2401</dim>
					<dim>64</dim>
				</port>
			</output>
		</layer>
		<layer id="66" name="__module.model.encoder.backbone.blocks.1.attn/aten::scaled_dot_product_attention/ScaledDotProductAttention" type="scaled_dot_product_attention">
			<data execOrder="491" execTimeMcs="8312" originalLayersNames="__module.model.encoder.backbone.blocks.1.attn/aten::scaled_dot_product_attention/ScaledDotProductAttention" outputLayouts="bfyx" outputPrecisions="f16" primitiveType="ocl::sdpa::opt__f16" runtimePrecision="f16" />
			<input>
				<port id="0" precision="FP16">
					<dim>1</dim>
					<dim>16</dim>
					<dim>2401</dim>
					<dim>64</dim>
				</port>
				<port id="1" precision="FP16">
					<dim>1</dim>
					<dim>16</dim>
					<dim>2401</dim>
					<dim>64</dim>
				</port>
				<port id="2" precision="FP16">
					<dim>1</dim>
					<dim>16</dim>
					<dim>2401</dim>
					<dim>64</dim>
				</port>
			</input>
			<output>
				<port id="3" precision="FP16">
					<dim>1</dim>
					<dim>16</dim>
					<dim>2401</dim>
					<dim>64</dim>
				</port>
			</output>
		</layer>
		<layer id="67" name="__module.model.encoder.backbone.blocks.1.attn/aten::permute/Transpose_1" type="Permute">
			<data execOrder="492" execTimeMcs="104" originalLayersNames="__module.model.encoder.backbone.blocks.1.attn/aten::permute/Transpose_1" outputLayouts="bfyx" outputPrecisions="f16" primitiveType="permute_ref__f16" runtimePrecision="f16" />
			<input>
				<port id="0" precision="FP16">
					<dim>1</dim>
					<dim>16</dim>
					<dim>2401</dim>
					<dim>64</dim>
				</port>
			</input>
			<output>
				<port id="1" precision="FP16">
					<dim>1</dim>
					<dim>2401</dim>
					<dim>16</dim>
					<dim>64</dim>
				</port>
			</output>
		</layer>
		<layer id="68" name="__module.model.encoder.backbone.blocks.1.attn/aten::reshape/Reshape_1" type="Reshape">
			<data execOrder="493" execTimeMcs="not_executed" originalLayersNames="__module.model.encoder.backbone.blocks.1.attn/aten::reshape/Reshape_1" outputLayouts="bfyx" outputPrecisions="f16" primitiveType="undef" runtimePrecision="f16" />
			<input>
				<port id="0" precision="FP16">
					<dim>1</dim>
					<dim>2401</dim>
					<dim>16</dim>
					<dim>64</dim>
				</port>
			</input>
			<output>
				<port id="1" precision="FP16">
					<dim>1</dim>
					<dim>2401</dim>
					<dim>1024</dim>
					<dim>1</dim>
				</port>
			</output>
		</layer>
		<layer id="69" name="Multiply_59638" type="FullyConnected">
			<data execOrder="494" execTimeMcs="327" originalLayersNames="Multiply_59638,__module.model.encoder.backbone.blocks.1.ls1/aten::mul/Multiply,__module.model.encoder.backbone.blocks.1/aten::add/Add" outputLayouts="bfyx" outputPrecisions="f16" primitiveType="jit:gemm:any__f16" runtimePrecision="f16" />
			<input>
				<port id="0" precision="FP16">
					<dim>1</dim>
					<dim>2401</dim>
					<dim>1024</dim>
					<dim>1</dim>
				</port>
				<port id="1" precision="FP16">
					<dim>1</dim>
					<dim>2401</dim>
					<dim>1024</dim>
					<dim>1</dim>
				</port>
			</input>
			<output>
				<port id="2" precision="FP16">
					<dim>1</dim>
					<dim>2401</dim>
					<dim>1024</dim>
					<dim>1</dim>
				</port>
				<port id="3" precision="FP16">
					<dim>1</dim>
					<dim>2401</dim>
					<dim>1024</dim>
					<dim>1</dim>
				</port>
			</output>
		</layer>
		<layer id="70" name="__module.model.encoder.backbone.blocks.1.norm2/aten::layer_norm/MVN" type="MVN">
			<data execOrder="495" execTimeMcs="82" originalLayersNames="__module.model.encoder.backbone.blocks.1.norm2/aten::layer_norm/MVN,__module.model.encoder.backbone.blocks.1.norm2/aten::layer_norm/Multiply_1,__module.model.encoder.backbone.blocks.1.norm2/aten::layer_norm/Add" outputLayouts="bfyx" outputPrecisions="f16" primitiveType="mvn_gpu_bfyx_opt__f16" runtimePrecision="f16" />
			<input>
				<port id="0" precision="FP16">
					<dim>1</dim>
					<dim>2401</dim>
					<dim>1024</dim>
					<dim>1</dim>
				</port>
			</input>
			<output>
				<port id="1" precision="FP16">
					<dim>1</dim>
					<dim>2401</dim>
					<dim>1024</dim>
					<dim>1</dim>
				</port>
			</output>
		</layer>
		<layer id="71" name="__module.model.encoder.backbone.blocks.1.mlp.fc1/aten::linear/MatMul" type="FullyConnected">
			<data execOrder="496" execTimeMcs="2226" originalLayersNames="__module.model.encoder.backbone.blocks.1.mlp.fc1/aten::linear/MatMul,__module.model.encoder.backbone.blocks.1.mlp.fc1/aten::linear/Add,__module.model.encoder.backbone.blocks.1.mlp.act/aten::gelu/Gelu" outputLayouts="bfyx" outputPrecisions="f16" primitiveType="jit:gemm:any__f16" runtimePrecision="f16" />
			<input>
				<port id="0" precision="FP16">
					<dim>1</dim>
					<dim>2401</dim>
					<dim>1024</dim>
					<dim>1</dim>
				</port>
			</input>
			<output>
				<port id="1" precision="FP16">
					<dim>1</dim>
					<dim>2401</dim>
					<dim>4096</dim>
					<dim>1</dim>
				</port>
			</output>
		</layer>
		<layer id="72" name="Multiply_59642" type="FullyConnected">
			<data execOrder="497" execTimeMcs="2376" originalLayersNames="Multiply_59642,__module.model.encoder.backbone.blocks.1.ls2/aten::mul/Multiply,__module.model.encoder.backbone.blocks.1/aten::add/Add_1" outputLayouts="bfyx" outputPrecisions="f16" primitiveType="jit:gemm:any__f16" runtimePrecision="f16" />
			<input>
				<port id="0" precision="FP16">
					<dim>1</dim>
					<dim>2401</dim>
					<dim>4096</dim>
					<dim>1</dim>
				</port>
				<port id="1" precision="FP16">
					<dim>1</dim>
					<dim>2401</dim>
					<dim>1024</dim>
					<dim>1</dim>
				</port>
			</input>
			<output>
				<port id="2" precision="FP16">
					<dim>1</dim>
					<dim>2401</dim>
					<dim>1024</dim>
					<dim>1</dim>
				</port>
				<port id="3" precision="FP16">
					<dim>1</dim>
					<dim>2401</dim>
					<dim>1024</dim>
					<dim>1</dim>
				</port>
			</output>
		</layer>
		<layer id="73" name="__module.model.encoder.backbone.blocks.2.norm1/aten::layer_norm/MVN" type="MVN">
			<data execOrder="498" execTimeMcs="81" originalLayersNames="__module.model.encoder.backbone.blocks.2.norm1/aten::layer_norm/MVN,__module.model.encoder.backbone.blocks.2.norm1/aten::layer_norm/Multiply_1,__module.model.encoder.backbone.blocks.2.norm1/aten::layer_norm/Add" outputLayouts="bfyx" outputPrecisions="f16" primitiveType="mvn_gpu_bfyx_opt__f16" runtimePrecision="f16" />
			<input>
				<port id="0" precision="FP16">
					<dim>1</dim>
					<dim>2401</dim>
					<dim>1024</dim>
					<dim>1</dim>
				</port>
			</input>
			<output>
				<port id="1" precision="FP16">
					<dim>1</dim>
					<dim>2401</dim>
					<dim>1024</dim>
					<dim>1</dim>
				</port>
			</output>
		</layer>
		<layer id="74" name="__module.model.encoder.backbone.blocks.2.attn.qkv/aten::linear/MatMul" type="FullyConnected">
			<data execOrder="499" execTimeMcs="5463" originalLayersNames="__module.model.encoder.backbone.blocks.2.attn.qkv/aten::linear/MatMul,__module.model.encoder.backbone.blocks.2.attn.qkv/aten::linear/Add" outputLayouts="bfyx" outputPrecisions="f16" primitiveType="jit:gemm:any__f16" runtimePrecision="f16" />
			<input>
				<port id="0" precision="FP16">
					<dim>1</dim>
					<dim>2401</dim>
					<dim>1024</dim>
					<dim>1</dim>
				</port>
			</input>
			<output>
				<port id="1" precision="FP16">
					<dim>1</dim>
					<dim>2401</dim>
					<dim>3072</dim>
					<dim>1</dim>
				</port>
			</output>
		</layer>
		<layer id="75" name="__module.model.encoder.backbone.blocks.2.attn/aten::reshape/Reshape_reorder" type="Reorder">
			<data execOrder="500" execTimeMcs="not_executed" originalLayersNames="__module.model.encoder.backbone.blocks.2.attn/aten::reshape/Reshape" outputLayouts="bfzyx" outputPrecisions="f16" primitiveType="undef" runtimePrecision="f16" />
			<input>
				<port id="0" precision="FP16">
					<dim>1</dim>
					<dim>2401</dim>
					<dim>3072</dim>
					<dim>1</dim>
				</port>
			</input>
			<output>
				<port id="1" precision="FP16">
					<dim>1</dim>
					<dim>2401</dim>
					<dim>1</dim>
					<dim>3072</dim>
					<dim>1</dim>
				</port>
			</output>
		</layer>
		<layer id="76" name="__module.model.encoder.backbone.blocks.2.attn/aten::reshape/Reshape" type="Reshape">
			<data execOrder="501" execTimeMcs="not_executed" originalLayersNames="__module.model.encoder.backbone.blocks.2.attn/aten::reshape/Reshape" outputLayouts="bfzyx" outputPrecisions="f16" primitiveType="undef" runtimePrecision="f16" />
			<input>
				<port id="0" precision="FP16">
					<dim>1</dim>
					<dim>2401</dim>
					<dim>1</dim>
					<dim>3072</dim>
					<dim>1</dim>
				</port>
			</input>
			<output>
				<port id="1" precision="FP16">
					<dim>1</dim>
					<dim>2401</dim>
					<dim>3</dim>
					<dim>16</dim>
					<dim>64</dim>
				</port>
			</output>
		</layer>
		<layer id="77" name="__module.model.encoder.backbone.blocks.2.attn/aten::permute/Transpose" type="Permute">
			<data execOrder="502" execTimeMcs="4524" originalLayersNames="__module.model.encoder.backbone.blocks.2.attn/aten::permute/Transpose" outputLayouts="bfzyx" outputPrecisions="f16" primitiveType="permute_ref__f16" runtimePrecision="f16" />
			<input>
				<port id="0" precision="FP16">
					<dim>1</dim>
					<dim>2401</dim>
					<dim>3</dim>
					<dim>16</dim>
					<dim>64</dim>
				</port>
			</input>
			<output>
				<port id="1" precision="FP16">
					<dim>3</dim>
					<dim>1</dim>
					<dim>16</dim>
					<dim>2401</dim>
					<dim>64</dim>
				</port>
				<port id="2" precision="FP16">
					<dim>3</dim>
					<dim>1</dim>
					<dim>16</dim>
					<dim>2401</dim>
					<dim>64</dim>
				</port>
				<port id="3" precision="FP16">
					<dim>3</dim>
					<dim>1</dim>
					<dim>16</dim>
					<dim>2401</dim>
					<dim>64</dim>
				</port>
			</output>
		</layer>
		<layer id="78" name="__module.model.encoder.backbone.blocks.2.attn/prim::ListUnpack/Split.out0" type="Crop">
			<data execOrder="509" execTimeMcs="not_executed" originalLayersNames="__module.model.encoder.backbone.blocks.2.attn/prim::ListUnpack/Split" outputLayouts="bfzyx" outputPrecisions="f16" primitiveType="undef" runtimePrecision="f16" />
			<input>
				<port id="0" precision="FP16">
					<dim>3</dim>
					<dim>1</dim>
					<dim>16</dim>
					<dim>2401</dim>
					<dim>64</dim>
				</port>
			</input>
			<output>
				<port id="1" precision="FP16">
					<dim>1</dim>
					<dim>1</dim>
					<dim>16</dim>
					<dim>2401</dim>
					<dim>64</dim>
				</port>
			</output>
		</layer>
		<layer id="79" name="__module.model.encoder.backbone.blocks.2.attn/prim::ListUnpack/Squeeze_reorder" type="Reorder">
			<data execOrder="510" execTimeMcs="1719" originalLayersNames="__module.model.encoder.backbone.blocks.2.attn/prim::ListUnpack/Squeeze" outputLayouts="bfyx" outputPrecisions="f16" primitiveType="reorder_data_fast_b1__f16" runtimePrecision="f16" />
			<input>
				<port id="0" precision="FP16">
					<dim>1</dim>
					<dim>1</dim>
					<dim>16</dim>
					<dim>2401</dim>
					<dim>64</dim>
				</port>
			</input>
			<output>
				<port id="1" precision="FP16">
					<dim>1</dim>
					<dim>1</dim>
					<dim>38416</dim>
					<dim>64</dim>
				</port>
			</output>
		</layer>
		<layer id="80" name="__module.model.encoder.backbone.blocks.2.attn/prim::ListUnpack/Squeeze" type="Reshape">
			<data execOrder="511" execTimeMcs="not_executed" originalLayersNames="__module.model.encoder.backbone.blocks.2.attn/prim::ListUnpack/Squeeze" outputLayouts="bfyx" outputPrecisions="f16" primitiveType="undef" runtimePrecision="f16" />
			<input>
				<port id="0" precision="FP16">
					<dim>1</dim>
					<dim>1</dim>
					<dim>38416</dim>
					<dim>64</dim>
				</port>
			</input>
			<output>
				<port id="1" precision="FP16">
					<dim>1</dim>
					<dim>16</dim>
					<dim>2401</dim>
					<dim>64</dim>
				</port>
			</output>
		</layer>
		<layer id="81" name="__module.model.encoder.backbone.blocks.2.attn/prim::ListUnpack/Split.out1" type="Crop">
			<data execOrder="506" execTimeMcs="not_executed" originalLayersNames="__module.model.encoder.backbone.blocks.2.attn/prim::ListUnpack/Split" outputLayouts="bfzyx" outputPrecisions="f16" primitiveType="undef" runtimePrecision="f16" />
			<input>
				<port id="0" precision="FP16">
					<dim>3</dim>
					<dim>1</dim>
					<dim>16</dim>
					<dim>2401</dim>
					<dim>64</dim>
				</port>
			</input>
			<output>
				<port id="1" precision="FP16">
					<dim>1</dim>
					<dim>1</dim>
					<dim>16</dim>
					<dim>2401</dim>
					<dim>64</dim>
				</port>
			</output>
		</layer>
		<layer id="82" name="__module.model.encoder.backbone.blocks.2.attn/prim::ListUnpack/Squeeze_0_reorder" type="Reorder">
			<data execOrder="507" execTimeMcs="671" originalLayersNames="__module.model.encoder.backbone.blocks.2.attn/prim::ListUnpack/Squeeze_0" outputLayouts="bfyx" outputPrecisions="f16" primitiveType="reorder_data_fast_b1__f16" runtimePrecision="f16" />
			<input>
				<port id="0" precision="FP16">
					<dim>1</dim>
					<dim>1</dim>
					<dim>16</dim>
					<dim>2401</dim>
					<dim>64</dim>
				</port>
			</input>
			<output>
				<port id="1" precision="FP16">
					<dim>1</dim>
					<dim>1</dim>
					<dim>38416</dim>
					<dim>64</dim>
				</port>
			</output>
		</layer>
		<layer id="83" name="__module.model.encoder.backbone.blocks.2.attn/prim::ListUnpack/Squeeze_0" type="Reshape">
			<data execOrder="508" execTimeMcs="not_executed" originalLayersNames="__module.model.encoder.backbone.blocks.2.attn/prim::ListUnpack/Squeeze_0" outputLayouts="bfyx" outputPrecisions="f16" primitiveType="undef" runtimePrecision="f16" />
			<input>
				<port id="0" precision="FP16">
					<dim>1</dim>
					<dim>1</dim>
					<dim>38416</dim>
					<dim>64</dim>
				</port>
			</input>
			<output>
				<port id="1" precision="FP16">
					<dim>1</dim>
					<dim>16</dim>
					<dim>2401</dim>
					<dim>64</dim>
				</port>
			</output>
		</layer>
		<layer id="84" name="__module.model.encoder.backbone.blocks.2.attn/prim::ListUnpack/Split.out2" type="Crop">
			<data execOrder="503" execTimeMcs="not_executed" originalLayersNames="__module.model.encoder.backbone.blocks.2.attn/prim::ListUnpack/Split" outputLayouts="bfzyx" outputPrecisions="f16" primitiveType="undef" runtimePrecision="f16" />
			<input>
				<port id="0" precision="FP16">
					<dim>3</dim>
					<dim>1</dim>
					<dim>16</dim>
					<dim>2401</dim>
					<dim>64</dim>
				</port>
			</input>
			<output>
				<port id="1" precision="FP16">
					<dim>1</dim>
					<dim>1</dim>
					<dim>16</dim>
					<dim>2401</dim>
					<dim>64</dim>
				</port>
			</output>
		</layer>
		<layer id="85" name="__module.model.encoder.backbone.blocks.2.attn/prim::ListUnpack/Squeeze_1_reorder" type="Reorder">
			<data execOrder="504" execTimeMcs="696" originalLayersNames="__module.model.encoder.backbone.blocks.2.attn/prim::ListUnpack/Squeeze_1" outputLayouts="bfyx" outputPrecisions="f16" primitiveType="reorder_data_fast_b1__f16" runtimePrecision="f16" />
			<input>
				<port id="0" precision="FP16">
					<dim>1</dim>
					<dim>1</dim>
					<dim>16</dim>
					<dim>2401</dim>
					<dim>64</dim>
				</port>
			</input>
			<output>
				<port id="1" precision="FP16">
					<dim>1</dim>
					<dim>1</dim>
					<dim>38416</dim>
					<dim>64</dim>
				</port>
			</output>
		</layer>
		<layer id="86" name="__module.model.encoder.backbone.blocks.2.attn/prim::ListUnpack/Squeeze_1" type="Reshape">
			<data execOrder="505" execTimeMcs="not_executed" originalLayersNames="__module.model.encoder.backbone.blocks.2.attn/prim::ListUnpack/Squeeze_1" outputLayouts="bfyx" outputPrecisions="f16" primitiveType="undef" runtimePrecision="f16" />
			<input>
				<port id="0" precision="FP16">
					<dim>1</dim>
					<dim>1</dim>
					<dim>38416</dim>
					<dim>64</dim>
				</port>
			</input>
			<output>
				<port id="1" precision="FP16">
					<dim>1</dim>
					<dim>16</dim>
					<dim>2401</dim>
					<dim>64</dim>
				</port>
			</output>
		</layer>
		<layer id="87" name="__module.model.encoder.backbone.blocks.2.attn/aten::scaled_dot_product_attention/ScaledDotProductAttention" type="scaled_dot_product_attention">
			<data execOrder="512" execTimeMcs="15578" originalLayersNames="__module.model.encoder.backbone.blocks.2.attn/aten::scaled_dot_product_attention/ScaledDotProductAttention" outputLayouts="bfyx" outputPrecisions="f16" primitiveType="ocl::sdpa::opt__f16" runtimePrecision="f16" />
			<input>
				<port id="0" precision="FP16">
					<dim>1</dim>
					<dim>16</dim>
					<dim>2401</dim>
					<dim>64</dim>
				</port>
				<port id="1" precision="FP16">
					<dim>1</dim>
					<dim>16</dim>
					<dim>2401</dim>
					<dim>64</dim>
				</port>
				<port id="2" precision="FP16">
					<dim>1</dim>
					<dim>16</dim>
					<dim>2401</dim>
					<dim>64</dim>
				</port>
			</input>
			<output>
				<port id="3" precision="FP16">
					<dim>1</dim>
					<dim>16</dim>
					<dim>2401</dim>
					<dim>64</dim>
				</port>
			</output>
		</layer>
		<layer id="88" name="__module.model.encoder.backbone.blocks.2.attn/aten::permute/Transpose_1" type="Permute">
			<data execOrder="513" execTimeMcs="900" originalLayersNames="__module.model.encoder.backbone.blocks.2.attn/aten::permute/Transpose_1" outputLayouts="bfyx" outputPrecisions="f16" primitiveType="permute_ref__f16" runtimePrecision="f16" />
			<input>
				<port id="0" precision="FP16">
					<dim>1</dim>
					<dim>16</dim>
					<dim>2401</dim>
					<dim>64</dim>
				</port>
			</input>
			<output>
				<port id="1" precision="FP16">
					<dim>1</dim>
					<dim>2401</dim>
					<dim>16</dim>
					<dim>64</dim>
				</port>
			</output>
		</layer>
		<layer id="89" name="__module.model.encoder.backbone.blocks.2.attn/aten::reshape/Reshape_1" type="Reshape">
			<data execOrder="514" execTimeMcs="not_executed" originalLayersNames="__module.model.encoder.backbone.blocks.2.attn/aten::reshape/Reshape_1" outputLayouts="bfyx" outputPrecisions="f16" primitiveType="undef" runtimePrecision="f16" />
			<input>
				<port id="0" precision="FP16">
					<dim>1</dim>
					<dim>2401</dim>
					<dim>16</dim>
					<dim>64</dim>
				</port>
			</input>
			<output>
				<port id="1" precision="FP16">
					<dim>1</dim>
					<dim>2401</dim>
					<dim>1024</dim>
					<dim>1</dim>
				</port>
			</output>
		</layer>
		<layer id="90" name="Multiply_59646" type="FullyConnected">
			<data execOrder="515" execTimeMcs="1640" originalLayersNames="Multiply_59646,__module.model.encoder.backbone.blocks.2.ls1/aten::mul/Multiply,__module.model.encoder.backbone.blocks.2/aten::add/Add" outputLayouts="bfyx" outputPrecisions="f16" primitiveType="jit:gemm:any__f16" runtimePrecision="f16" />
			<input>
				<port id="0" precision="FP16">
					<dim>1</dim>
					<dim>2401</dim>
					<dim>1024</dim>
					<dim>1</dim>
				</port>
				<port id="1" precision="FP16">
					<dim>1</dim>
					<dim>2401</dim>
					<dim>1024</dim>
					<dim>1</dim>
				</port>
			</input>
			<output>
				<port id="2" precision="FP16">
					<dim>1</dim>
					<dim>2401</dim>
					<dim>1024</dim>
					<dim>1</dim>
				</port>
				<port id="3" precision="FP16">
					<dim>1</dim>
					<dim>2401</dim>
					<dim>1024</dim>
					<dim>1</dim>
				</port>
			</output>
		</layer>
		<layer id="91" name="__module.model.encoder.backbone.blocks.2.norm2/aten::layer_norm/MVN" type="MVN">
			<data execOrder="516" execTimeMcs="648" originalLayersNames="__module.model.encoder.backbone.blocks.2.norm2/aten::layer_norm/MVN,__module.model.encoder.backbone.blocks.2.norm2/aten::layer_norm/Multiply_1,__module.model.encoder.backbone.blocks.2.norm2/aten::layer_norm/Add" outputLayouts="bfyx" outputPrecisions="f16" primitiveType="mvn_gpu_bfyx_opt__f16" runtimePrecision="f16" />
			<input>
				<port id="0" precision="FP16">
					<dim>1</dim>
					<dim>2401</dim>
					<dim>1024</dim>
					<dim>1</dim>
				</port>
			</input>
			<output>
				<port id="1" precision="FP16">
					<dim>1</dim>
					<dim>2401</dim>
					<dim>1024</dim>
					<dim>1</dim>
				</port>
			</output>
		</layer>
		<layer id="92" name="__module.model.encoder.backbone.blocks.2.mlp.fc1/aten::linear/MatMul" type="FullyConnected">
			<data execOrder="517" execTimeMcs="2246" originalLayersNames="__module.model.encoder.backbone.blocks.2.mlp.fc1/aten::linear/MatMul,__module.model.encoder.backbone.blocks.2.mlp.fc1/aten::linear/Add,__module.model.encoder.backbone.blocks.2.mlp.act/aten::gelu/Gelu" outputLayouts="bfyx" outputPrecisions="f16" primitiveType="jit:gemm:any__f16" runtimePrecision="f16" />
			<input>
				<port id="0" precision="FP16">
					<dim>1</dim>
					<dim>2401</dim>
					<dim>1024</dim>
					<dim>1</dim>
				</port>
			</input>
			<output>
				<port id="1" precision="FP16">
					<dim>1</dim>
					<dim>2401</dim>
					<dim>4096</dim>
					<dim>1</dim>
				</port>
			</output>
		</layer>
		<layer id="93" name="Multiply_59650" type="FullyConnected">
			<data execOrder="518" execTimeMcs="1975" originalLayersNames="Multiply_59650,__module.model.encoder.backbone.blocks.2.ls2/aten::mul/Multiply,__module.model.encoder.backbone.blocks.2/aten::add/Add_1" outputLayouts="bfyx" outputPrecisions="f16" primitiveType="jit:gemm:any__f16" runtimePrecision="f16" />
			<input>
				<port id="0" precision="FP16">
					<dim>1</dim>
					<dim>2401</dim>
					<dim>4096</dim>
					<dim>1</dim>
				</port>
				<port id="1" precision="FP16">
					<dim>1</dim>
					<dim>2401</dim>
					<dim>1024</dim>
					<dim>1</dim>
				</port>
			</input>
			<output>
				<port id="2" precision="FP16">
					<dim>1</dim>
					<dim>2401</dim>
					<dim>1024</dim>
					<dim>1</dim>
				</port>
				<port id="3" precision="FP16">
					<dim>1</dim>
					<dim>2401</dim>
					<dim>1024</dim>
					<dim>1</dim>
				</port>
			</output>
		</layer>
		<layer id="94" name="__module.model.encoder.backbone.blocks.3.norm1/aten::layer_norm/MVN" type="MVN">
			<data execOrder="519" execTimeMcs="1529" originalLayersNames="__module.model.encoder.backbone.blocks.3.norm1/aten::layer_norm/MVN,__module.model.encoder.backbone.blocks.3.norm1/aten::layer_norm/Multiply_1,__module.model.encoder.backbone.blocks.3.norm1/aten::layer_norm/Add" outputLayouts="bfyx" outputPrecisions="f16" primitiveType="mvn_gpu_bfyx_opt__f16" runtimePrecision="f16" />
			<input>
				<port id="0" precision="FP16">
					<dim>1</dim>
					<dim>2401</dim>
					<dim>1024</dim>
					<dim>1</dim>
				</port>
			</input>
			<output>
				<port id="1" precision="FP16">
					<dim>1</dim>
					<dim>2401</dim>
					<dim>1024</dim>
					<dim>1</dim>
				</port>
			</output>
		</layer>
		<layer id="95" name="__module.model.encoder.backbone.blocks.3.attn.qkv/aten::linear/MatMul" type="FullyConnected">
			<data execOrder="520" execTimeMcs="3916" originalLayersNames="__module.model.encoder.backbone.blocks.3.attn.qkv/aten::linear/MatMul,__module.model.encoder.backbone.blocks.3.attn.qkv/aten::linear/Add" outputLayouts="bfyx" outputPrecisions="f16" primitiveType="jit:gemm:any__f16" runtimePrecision="f16" />
			<input>
				<port id="0" precision="FP16">
					<dim>1</dim>
					<dim>2401</dim>
					<dim>1024</dim>
					<dim>1</dim>
				</port>
			</input>
			<output>
				<port id="1" precision="FP16">
					<dim>1</dim>
					<dim>2401</dim>
					<dim>3072</dim>
					<dim>1</dim>
				</port>
			</output>
		</layer>
		<layer id="96" name="__module.model.encoder.backbone.blocks.3.attn/aten::reshape/Reshape_reorder" type="Reorder">
			<data execOrder="521" execTimeMcs="not_executed" originalLayersNames="__module.model.encoder.backbone.blocks.3.attn/aten::reshape/Reshape" outputLayouts="bfzyx" outputPrecisions="f16" primitiveType="undef" runtimePrecision="f16" />
			<input>
				<port id="0" precision="FP16">
					<dim>1</dim>
					<dim>2401</dim>
					<dim>3072</dim>
					<dim>1</dim>
				</port>
			</input>
			<output>
				<port id="1" precision="FP16">
					<dim>1</dim>
					<dim>2401</dim>
					<dim>1</dim>
					<dim>3072</dim>
					<dim>1</dim>
				</port>
			</output>
		</layer>
		<layer id="97" name="__module.model.encoder.backbone.blocks.3.attn/aten::reshape/Reshape" type="Reshape">
			<data execOrder="522" execTimeMcs="not_executed" originalLayersNames="__module.model.encoder.backbone.blocks.3.attn/aten::reshape/Reshape" outputLayouts="bfzyx" outputPrecisions="f16" primitiveType="undef" runtimePrecision="f16" />
			<input>
				<port id="0" precision="FP16">
					<dim>1</dim>
					<dim>2401</dim>
					<dim>1</dim>
					<dim>3072</dim>
					<dim>1</dim>
				</port>
			</input>
			<output>
				<port id="1" precision="FP16">
					<dim>1</dim>
					<dim>2401</dim>
					<dim>3</dim>
					<dim>16</dim>
					<dim>64</dim>
				</port>
			</output>
		</layer>
		<layer id="98" name="__module.model.encoder.backbone.blocks.3.attn/aten::permute/Transpose" type="Permute">
			<data execOrder="523" execTimeMcs="1203" originalLayersNames="__module.model.encoder.backbone.blocks.3.attn/aten::permute/Transpose" outputLayouts="bfzyx" outputPrecisions="f16" primitiveType="permute_ref__f16" runtimePrecision="f16" />
			<input>
				<port id="0" precision="FP16">
					<dim>1</dim>
					<dim>2401</dim>
					<dim>3</dim>
					<dim>16</dim>
					<dim>64</dim>
				</port>
			</input>
			<output>
				<port id="1" precision="FP16">
					<dim>3</dim>
					<dim>1</dim>
					<dim>16</dim>
					<dim>2401</dim>
					<dim>64</dim>
				</port>
				<port id="2" precision="FP16">
					<dim>3</dim>
					<dim>1</dim>
					<dim>16</dim>
					<dim>2401</dim>
					<dim>64</dim>
				</port>
				<port id="3" precision="FP16">
					<dim>3</dim>
					<dim>1</dim>
					<dim>16</dim>
					<dim>2401</dim>
					<dim>64</dim>
				</port>
			</output>
		</layer>
		<layer id="99" name="__module.model.encoder.backbone.blocks.3.attn/prim::ListUnpack/Split.out0" type="Crop">
			<data execOrder="530" execTimeMcs="not_executed" originalLayersNames="__module.model.encoder.backbone.blocks.3.attn/prim::ListUnpack/Split" outputLayouts="bfzyx" outputPrecisions="f16" primitiveType="undef" runtimePrecision="f16" />
			<input>
				<port id="0" precision="FP16">
					<dim>3</dim>
					<dim>1</dim>
					<dim>16</dim>
					<dim>2401</dim>
					<dim>64</dim>
				</port>
			</input>
			<output>
				<port id="1" precision="FP16">
					<dim>1</dim>
					<dim>1</dim>
					<dim>16</dim>
					<dim>2401</dim>
					<dim>64</dim>
				</port>
			</output>
		</layer>
		<layer id="100" name="__module.model.encoder.backbone.blocks.3.attn/prim::ListUnpack/Squeeze_reorder" type="Reorder">
			<data execOrder="531" execTimeMcs="486" originalLayersNames="__module.model.encoder.backbone.blocks.3.attn/prim::ListUnpack/Squeeze" outputLayouts="bfyx" outputPrecisions="f16" primitiveType="reorder_data_fast_b1__f16" runtimePrecision="f16" />
			<input>
				<port id="0" precision="FP16">
					<dim>1</dim>
					<dim>1</dim>
					<dim>16</dim>
					<dim>2401</dim>
					<dim>64</dim>
				</port>
			</input>
			<output>
				<port id="1" precision="FP16">
					<dim>1</dim>
					<dim>1</dim>
					<dim>38416</dim>
					<dim>64</dim>
				</port>
			</output>
		</layer>
		<layer id="101" name="__module.model.encoder.backbone.blocks.3.attn/prim::ListUnpack/Squeeze" type="Reshape">
			<data execOrder="532" execTimeMcs="not_executed" originalLayersNames="__module.model.encoder.backbone.blocks.3.attn/prim::ListUnpack/Squeeze" outputLayouts="bfyx" outputPrecisions="f16" primitiveType="undef" runtimePrecision="f16" />
			<input>
				<port id="0" precision="FP16">
					<dim>1</dim>
					<dim>1</dim>
					<dim>38416</dim>
					<dim>64</dim>
				</port>
			</input>
			<output>
				<port id="1" precision="FP16">
					<dim>1</dim>
					<dim>16</dim>
					<dim>2401</dim>
					<dim>64</dim>
				</port>
			</output>
		</layer>
		<layer id="102" name="__module.model.encoder.backbone.blocks.3.attn/prim::ListUnpack/Split.out1" type="Crop">
			<data execOrder="527" execTimeMcs="not_executed" originalLayersNames="__module.model.encoder.backbone.blocks.3.attn/prim::ListUnpack/Split" outputLayouts="bfzyx" outputPrecisions="f16" primitiveType="undef" runtimePrecision="f16" />
			<input>
				<port id="0" precision="FP16">
					<dim>3</dim>
					<dim>1</dim>
					<dim>16</dim>
					<dim>2401</dim>
					<dim>64</dim>
				</port>
			</input>
			<output>
				<port id="1" precision="FP16">
					<dim>1</dim>
					<dim>1</dim>
					<dim>16</dim>
					<dim>2401</dim>
					<dim>64</dim>
				</port>
			</output>
		</layer>
		<layer id="103" name="__module.model.encoder.backbone.blocks.3.attn/prim::ListUnpack/Squeeze_0_reorder" type="Reorder">
			<data execOrder="528" execTimeMcs="1045" originalLayersNames="__module.model.encoder.backbone.blocks.3.attn/prim::ListUnpack/Squeeze_0" outputLayouts="bfyx" outputPrecisions="f16" primitiveType="reorder_data_fast_b1__f16" runtimePrecision="f16" />
			<input>
				<port id="0" precision="FP16">
					<dim>1</dim>
					<dim>1</dim>
					<dim>16</dim>
					<dim>2401</dim>
					<dim>64</dim>
				</port>
			</input>
			<output>
				<port id="1" precision="FP16">
					<dim>1</dim>
					<dim>1</dim>
					<dim>38416</dim>
					<dim>64</dim>
				</port>
			</output>
		</layer>
		<layer id="104" name="__module.model.encoder.backbone.blocks.3.attn/prim::ListUnpack/Squeeze_0" type="Reshape">
			<data execOrder="529" execTimeMcs="not_executed" originalLayersNames="__module.model.encoder.backbone.blocks.3.attn/prim::ListUnpack/Squeeze_0" outputLayouts="bfyx" outputPrecisions="f16" primitiveType="undef" runtimePrecision="f16" />
			<input>
				<port id="0" precision="FP16">
					<dim>1</dim>
					<dim>1</dim>
					<dim>38416</dim>
					<dim>64</dim>
				</port>
			</input>
			<output>
				<port id="1" precision="FP16">
					<dim>1</dim>
					<dim>16</dim>
					<dim>2401</dim>
					<dim>64</dim>
				</port>
			</output>
		</layer>
		<layer id="105" name="__module.model.encoder.backbone.blocks.3.attn/prim::ListUnpack/Split.out2" type="Crop">
			<data execOrder="524" execTimeMcs="not_executed" originalLayersNames="__module.model.encoder.backbone.blocks.3.attn/prim::ListUnpack/Split" outputLayouts="bfzyx" outputPrecisions="f16" primitiveType="undef" runtimePrecision="f16" />
			<input>
				<port id="0" precision="FP16">
					<dim>3</dim>
					<dim>1</dim>
					<dim>16</dim>
					<dim>2401</dim>
					<dim>64</dim>
				</port>
			</input>
			<output>
				<port id="1" precision="FP16">
					<dim>1</dim>
					<dim>1</dim>
					<dim>16</dim>
					<dim>2401</dim>
					<dim>64</dim>
				</port>
			</output>
		</layer>
		<layer id="106" name="__module.model.encoder.backbone.blocks.3.attn/prim::ListUnpack/Squeeze_1_reorder" type="Reorder">
			<data execOrder="525" execTimeMcs="939" originalLayersNames="__module.model.encoder.backbone.blocks.3.attn/prim::ListUnpack/Squeeze_1" outputLayouts="bfyx" outputPrecisions="f16" primitiveType="reorder_data_fast_b1__f16" runtimePrecision="f16" />
			<input>
				<port id="0" precision="FP16">
					<dim>1</dim>
					<dim>1</dim>
					<dim>16</dim>
					<dim>2401</dim>
					<dim>64</dim>
				</port>
			</input>
			<output>
				<port id="1" precision="FP16">
					<dim>1</dim>
					<dim>1</dim>
					<dim>38416</dim>
					<dim>64</dim>
				</port>
			</output>
		</layer>
		<layer id="107" name="__module.model.encoder.backbone.blocks.3.attn/prim::ListUnpack/Squeeze_1" type="Reshape">
			<data execOrder="526" execTimeMcs="not_executed" originalLayersNames="__module.model.encoder.backbone.blocks.3.attn/prim::ListUnpack/Squeeze_1" outputLayouts="bfyx" outputPrecisions="f16" primitiveType="undef" runtimePrecision="f16" />
			<input>
				<port id="0" precision="FP16">
					<dim>1</dim>
					<dim>1</dim>
					<dim>38416</dim>
					<dim>64</dim>
				</port>
			</input>
			<output>
				<port id="1" precision="FP16">
					<dim>1</dim>
					<dim>16</dim>
					<dim>2401</dim>
					<dim>64</dim>
				</port>
			</output>
		</layer>
		<layer id="108" name="__module.model.encoder.backbone.blocks.3.attn/aten::scaled_dot_product_attention/ScaledDotProductAttention" type="scaled_dot_product_attention">
			<data execOrder="533" execTimeMcs="20060" originalLayersNames="__module.model.encoder.backbone.blocks.3.attn/aten::scaled_dot_product_attention/ScaledDotProductAttention" outputLayouts="bfyx" outputPrecisions="f16" primitiveType="ocl::sdpa::opt__f16" runtimePrecision="f16" />
			<input>
				<port id="0" precision="FP16">
					<dim>1</dim>
					<dim>16</dim>
					<dim>2401</dim>
					<dim>64</dim>
				</port>
				<port id="1" precision="FP16">
					<dim>1</dim>
					<dim>16</dim>
					<dim>2401</dim>
					<dim>64</dim>
				</port>
				<port id="2" precision="FP16">
					<dim>1</dim>
					<dim>16</dim>
					<dim>2401</dim>
					<dim>64</dim>
				</port>
			</input>
			<output>
				<port id="3" precision="FP16">
					<dim>1</dim>
					<dim>16</dim>
					<dim>2401</dim>
					<dim>64</dim>
				</port>
			</output>
		</layer>
		<layer id="109" name="__module.model.encoder.backbone.blocks.3.attn/aten::permute/Transpose_1" type="Permute">
			<data execOrder="534" execTimeMcs="104" originalLayersNames="__module.model.encoder.backbone.blocks.3.attn/aten::permute/Transpose_1" outputLayouts="bfyx" outputPrecisions="f16" primitiveType="permute_ref__f16" runtimePrecision="f16" />
			<input>
				<port id="0" precision="FP16">
					<dim>1</dim>
					<dim>16</dim>
					<dim>2401</dim>
					<dim>64</dim>
				</port>
			</input>
			<output>
				<port id="1" precision="FP16">
					<dim>1</dim>
					<dim>2401</dim>
					<dim>16</dim>
					<dim>64</dim>
				</port>
			</output>
		</layer>
		<layer id="110" name="__module.model.encoder.backbone.blocks.3.attn/aten::reshape/Reshape_1" type="Reshape">
			<data execOrder="535" execTimeMcs="not_executed" originalLayersNames="__module.model.encoder.backbone.blocks.3.attn/aten::reshape/Reshape_1" outputLayouts="bfyx" outputPrecisions="f16" primitiveType="undef" runtimePrecision="f16" />
			<input>
				<port id="0" precision="FP16">
					<dim>1</dim>
					<dim>2401</dim>
					<dim>16</dim>
					<dim>64</dim>
				</port>
			</input>
			<output>
				<port id="1" precision="FP16">
					<dim>1</dim>
					<dim>2401</dim>
					<dim>1024</dim>
					<dim>1</dim>
				</port>
			</output>
		</layer>
		<layer id="111" name="Multiply_59654" type="FullyConnected">
			<data execOrder="536" execTimeMcs="569" originalLayersNames="Multiply_59654,__module.model.encoder.backbone.blocks.3.ls1/aten::mul/Multiply,__module.model.encoder.backbone.blocks.3/aten::add/Add" outputLayouts="bfyx" outputPrecisions="f16" primitiveType="jit:gemm:any__f16" runtimePrecision="f16" />
			<input>
				<port id="0" precision="FP16">
					<dim>1</dim>
					<dim>2401</dim>
					<dim>1024</dim>
					<dim>1</dim>
				</port>
				<port id="1" precision="FP16">
					<dim>1</dim>
					<dim>2401</dim>
					<dim>1024</dim>
					<dim>1</dim>
				</port>
			</input>
			<output>
				<port id="2" precision="FP16">
					<dim>1</dim>
					<dim>2401</dim>
					<dim>1024</dim>
					<dim>1</dim>
				</port>
				<port id="3" precision="FP16">
					<dim>1</dim>
					<dim>2401</dim>
					<dim>1024</dim>
					<dim>1</dim>
				</port>
			</output>
		</layer>
		<layer id="112" name="__module.model.encoder.backbone.blocks.3.norm2/aten::layer_norm/MVN" type="MVN">
			<data execOrder="537" execTimeMcs="83" originalLayersNames="__module.model.encoder.backbone.blocks.3.norm2/aten::layer_norm/MVN,__module.model.encoder.backbone.blocks.3.norm2/aten::layer_norm/Multiply_1,__module.model.encoder.backbone.blocks.3.norm2/aten::layer_norm/Add" outputLayouts="bfyx" outputPrecisions="f16" primitiveType="mvn_gpu_bfyx_opt__f16" runtimePrecision="f16" />
			<input>
				<port id="0" precision="FP16">
					<dim>1</dim>
					<dim>2401</dim>
					<dim>1024</dim>
					<dim>1</dim>
				</port>
			</input>
			<output>
				<port id="1" precision="FP16">
					<dim>1</dim>
					<dim>2401</dim>
					<dim>1024</dim>
					<dim>1</dim>
				</port>
			</output>
		</layer>
		<layer id="113" name="__module.model.encoder.backbone.blocks.3.mlp.fc1/aten::linear/MatMul" type="FullyConnected">
			<data execOrder="538" execTimeMcs="4233" originalLayersNames="__module.model.encoder.backbone.blocks.3.mlp.fc1/aten::linear/MatMul,__module.model.encoder.backbone.blocks.3.mlp.fc1/aten::linear/Add,__module.model.encoder.backbone.blocks.3.mlp.act/aten::gelu/Gelu" outputLayouts="bfyx" outputPrecisions="f16" primitiveType="jit:gemm:any__f16" runtimePrecision="f16" />
			<input>
				<port id="0" precision="FP16">
					<dim>1</dim>
					<dim>2401</dim>
					<dim>1024</dim>
					<dim>1</dim>
				</port>
			</input>
			<output>
				<port id="1" precision="FP16">
					<dim>1</dim>
					<dim>2401</dim>
					<dim>4096</dim>
					<dim>1</dim>
				</port>
			</output>
		</layer>
		<layer id="114" name="Multiply_59658" type="FullyConnected">
			<data execOrder="539" execTimeMcs="1145" originalLayersNames="Multiply_59658,__module.model.encoder.backbone.blocks.3.ls2/aten::mul/Multiply,__module.model.encoder.backbone.blocks.3/aten::add/Add_1" outputLayouts="bfyx" outputPrecisions="f16" primitiveType="jit:gemm:any__f16" runtimePrecision="f16" />
			<input>
				<port id="0" precision="FP16">
					<dim>1</dim>
					<dim>2401</dim>
					<dim>4096</dim>
					<dim>1</dim>
				</port>
				<port id="1" precision="FP16">
					<dim>1</dim>
					<dim>2401</dim>
					<dim>1024</dim>
					<dim>1</dim>
				</port>
			</input>
			<output>
				<port id="2" precision="FP16">
					<dim>1</dim>
					<dim>2401</dim>
					<dim>1024</dim>
					<dim>1</dim>
				</port>
				<port id="3" precision="FP16">
					<dim>1</dim>
					<dim>2401</dim>
					<dim>1024</dim>
					<dim>1</dim>
				</port>
			</output>
		</layer>
		<layer id="115" name="__module.model.encoder.backbone.blocks.4.norm1/aten::layer_norm/MVN" type="MVN">
			<data execOrder="540" execTimeMcs="203" originalLayersNames="__module.model.encoder.backbone.blocks.4.norm1/aten::layer_norm/MVN,__module.model.encoder.backbone.blocks.4.norm1/aten::layer_norm/Multiply_1,__module.model.encoder.backbone.blocks.4.norm1/aten::layer_norm/Add" outputLayouts="bfyx" outputPrecisions="f16" primitiveType="mvn_gpu_bfyx_opt__f16" runtimePrecision="f16" />
			<input>
				<port id="0" precision="FP16">
					<dim>1</dim>
					<dim>2401</dim>
					<dim>1024</dim>
					<dim>1</dim>
				</port>
			</input>
			<output>
				<port id="1" precision="FP16">
					<dim>1</dim>
					<dim>2401</dim>
					<dim>1024</dim>
					<dim>1</dim>
				</port>
			</output>
		</layer>
		<layer id="116" name="__module.model.encoder.backbone.blocks.4.attn.qkv/aten::linear/MatMul" type="FullyConnected">
			<data execOrder="541" execTimeMcs="1792" originalLayersNames="__module.model.encoder.backbone.blocks.4.attn.qkv/aten::linear/MatMul,__module.model.encoder.backbone.blocks.4.attn.qkv/aten::linear/Add" outputLayouts="bfyx" outputPrecisions="f16" primitiveType="jit:gemm:any__f16" runtimePrecision="f16" />
			<input>
				<port id="0" precision="FP16">
					<dim>1</dim>
					<dim>2401</dim>
					<dim>1024</dim>
					<dim>1</dim>
				</port>
			</input>
			<output>
				<port id="1" precision="FP16">
					<dim>1</dim>
					<dim>2401</dim>
					<dim>3072</dim>
					<dim>1</dim>
				</port>
			</output>
		</layer>
		<layer id="117" name="__module.model.encoder.backbone.blocks.4.attn/aten::reshape/Reshape_reorder" type="Reorder">
			<data execOrder="542" execTimeMcs="not_executed" originalLayersNames="__module.model.encoder.backbone.blocks.4.attn/aten::reshape/Reshape" outputLayouts="bfzyx" outputPrecisions="f16" primitiveType="undef" runtimePrecision="f16" />
			<input>
				<port id="0" precision="FP16">
					<dim>1</dim>
					<dim>2401</dim>
					<dim>3072</dim>
					<dim>1</dim>
				</port>
			</input>
			<output>
				<port id="1" precision="FP16">
					<dim>1</dim>
					<dim>2401</dim>
					<dim>1</dim>
					<dim>3072</dim>
					<dim>1</dim>
				</port>
			</output>
		</layer>
		<layer id="118" name="__module.model.encoder.backbone.blocks.4.attn/aten::reshape/Reshape" type="Reshape">
			<data execOrder="543" execTimeMcs="not_executed" originalLayersNames="__module.model.encoder.backbone.blocks.4.attn/aten::reshape/Reshape" outputLayouts="bfzyx" outputPrecisions="f16" primitiveType="undef" runtimePrecision="f16" />
			<input>
				<port id="0" precision="FP16">
					<dim>1</dim>
					<dim>2401</dim>
					<dim>1</dim>
					<dim>3072</dim>
					<dim>1</dim>
				</port>
			</input>
			<output>
				<port id="1" precision="FP16">
					<dim>1</dim>
					<dim>2401</dim>
					<dim>3</dim>
					<dim>16</dim>
					<dim>64</dim>
				</port>
			</output>
		</layer>
		<layer id="119" name="__module.model.encoder.backbone.blocks.4.attn/aten::permute/Transpose" type="Permute">
			<data execOrder="544" execTimeMcs="319" originalLayersNames="__module.model.encoder.backbone.blocks.4.attn/aten::permute/Transpose" outputLayouts="bfzyx" outputPrecisions="f16" primitiveType="permute_ref__f16" runtimePrecision="f16" />
			<input>
				<port id="0" precision="FP16">
					<dim>1</dim>
					<dim>2401</dim>
					<dim>3</dim>
					<dim>16</dim>
					<dim>64</dim>
				</port>
			</input>
			<output>
				<port id="1" precision="FP16">
					<dim>3</dim>
					<dim>1</dim>
					<dim>16</dim>
					<dim>2401</dim>
					<dim>64</dim>
				</port>
				<port id="2" precision="FP16">
					<dim>3</dim>
					<dim>1</dim>
					<dim>16</dim>
					<dim>2401</dim>
					<dim>64</dim>
				</port>
				<port id="3" precision="FP16">
					<dim>3</dim>
					<dim>1</dim>
					<dim>16</dim>
					<dim>2401</dim>
					<dim>64</dim>
				</port>
			</output>
		</layer>
		<layer id="120" name="__module.model.encoder.backbone.blocks.4.attn/prim::ListUnpack/Split.out0" type="Crop">
			<data execOrder="551" execTimeMcs="not_executed" originalLayersNames="__module.model.encoder.backbone.blocks.4.attn/prim::ListUnpack/Split" outputLayouts="bfzyx" outputPrecisions="f16" primitiveType="undef" runtimePrecision="f16" />
			<input>
				<port id="0" precision="FP16">
					<dim>3</dim>
					<dim>1</dim>
					<dim>16</dim>
					<dim>2401</dim>
					<dim>64</dim>
				</port>
			</input>
			<output>
				<port id="1" precision="FP16">
					<dim>1</dim>
					<dim>1</dim>
					<dim>16</dim>
					<dim>2401</dim>
					<dim>64</dim>
				</port>
			</output>
		</layer>
		<layer id="121" name="__module.model.encoder.backbone.blocks.4.attn/prim::ListUnpack/Squeeze_reorder" type="Reorder">
			<data execOrder="552" execTimeMcs="126" originalLayersNames="__module.model.encoder.backbone.blocks.4.attn/prim::ListUnpack/Squeeze" outputLayouts="bfyx" outputPrecisions="f16" primitiveType="reorder_data_fast_b1__f16" runtimePrecision="f16" />
			<input>
				<port id="0" precision="FP16">
					<dim>1</dim>
					<dim>1</dim>
					<dim>16</dim>
					<dim>2401</dim>
					<dim>64</dim>
				</port>
			</input>
			<output>
				<port id="1" precision="FP16">
					<dim>1</dim>
					<dim>1</dim>
					<dim>38416</dim>
					<dim>64</dim>
				</port>
			</output>
		</layer>
		<layer id="122" name="__module.model.encoder.backbone.blocks.4.attn/prim::ListUnpack/Squeeze" type="Reshape">
			<data execOrder="553" execTimeMcs="not_executed" originalLayersNames="__module.model.encoder.backbone.blocks.4.attn/prim::ListUnpack/Squeeze" outputLayouts="bfyx" outputPrecisions="f16" primitiveType="undef" runtimePrecision="f16" />
			<input>
				<port id="0" precision="FP16">
					<dim>1</dim>
					<dim>1</dim>
					<dim>38416</dim>
					<dim>64</dim>
				</port>
			</input>
			<output>
				<port id="1" precision="FP16">
					<dim>1</dim>
					<dim>16</dim>
					<dim>2401</dim>
					<dim>64</dim>
				</port>
			</output>
		</layer>
		<layer id="123" name="__module.model.encoder.backbone.blocks.4.attn/prim::ListUnpack/Split.out1" type="Crop">
			<data execOrder="548" execTimeMcs="not_executed" originalLayersNames="__module.model.encoder.backbone.blocks.4.attn/prim::ListUnpack/Split" outputLayouts="bfzyx" outputPrecisions="f16" primitiveType="undef" runtimePrecision="f16" />
			<input>
				<port id="0" precision="FP16">
					<dim>3</dim>
					<dim>1</dim>
					<dim>16</dim>
					<dim>2401</dim>
					<dim>64</dim>
				</port>
			</input>
			<output>
				<port id="1" precision="FP16">
					<dim>1</dim>
					<dim>1</dim>
					<dim>16</dim>
					<dim>2401</dim>
					<dim>64</dim>
				</port>
			</output>
		</layer>
		<layer id="124" name="__module.model.encoder.backbone.blocks.4.attn/prim::ListUnpack/Squeeze_0_reorder" type="Reorder">
			<data execOrder="549" execTimeMcs="132" originalLayersNames="__module.model.encoder.backbone.blocks.4.attn/prim::ListUnpack/Squeeze_0" outputLayouts="bfyx" outputPrecisions="f16" primitiveType="reorder_data_fast_b1__f16" runtimePrecision="f16" />
			<input>
				<port id="0" precision="FP16">
					<dim>1</dim>
					<dim>1</dim>
					<dim>16</dim>
					<dim>2401</dim>
					<dim>64</dim>
				</port>
			</input>
			<output>
				<port id="1" precision="FP16">
					<dim>1</dim>
					<dim>1</dim>
					<dim>38416</dim>
					<dim>64</dim>
				</port>
			</output>
		</layer>
		<layer id="125" name="__module.model.encoder.backbone.blocks.4.attn/prim::ListUnpack/Squeeze_0" type="Reshape">
			<data execOrder="550" execTimeMcs="not_executed" originalLayersNames="__module.model.encoder.backbone.blocks.4.attn/prim::ListUnpack/Squeeze_0" outputLayouts="bfyx" outputPrecisions="f16" primitiveType="undef" runtimePrecision="f16" />
			<input>
				<port id="0" precision="FP16">
					<dim>1</dim>
					<dim>1</dim>
					<dim>38416</dim>
					<dim>64</dim>
				</port>
			</input>
			<output>
				<port id="1" precision="FP16">
					<dim>1</dim>
					<dim>16</dim>
					<dim>2401</dim>
					<dim>64</dim>
				</port>
			</output>
		</layer>
		<layer id="126" name="__module.model.encoder.backbone.blocks.4.attn/prim::ListUnpack/Split.out2" type="Crop">
			<data execOrder="545" execTimeMcs="not_executed" originalLayersNames="__module.model.encoder.backbone.blocks.4.attn/prim::ListUnpack/Split" outputLayouts="bfzyx" outputPrecisions="f16" primitiveType="undef" runtimePrecision="f16" />
			<input>
				<port id="0" precision="FP16">
					<dim>3</dim>
					<dim>1</dim>
					<dim>16</dim>
					<dim>2401</dim>
					<dim>64</dim>
				</port>
			</input>
			<output>
				<port id="1" precision="FP16">
					<dim>1</dim>
					<dim>1</dim>
					<dim>16</dim>
					<dim>2401</dim>
					<dim>64</dim>
				</port>
			</output>
		</layer>
		<layer id="127" name="__module.model.encoder.backbone.blocks.4.attn/prim::ListUnpack/Squeeze_1_reorder" type="Reorder">
			<data execOrder="546" execTimeMcs="116" originalLayersNames="__module.model.encoder.backbone.blocks.4.attn/prim::ListUnpack/Squeeze_1" outputLayouts="bfyx" outputPrecisions="f16" primitiveType="reorder_data_fast_b1__f16" runtimePrecision="f16" />
			<input>
				<port id="0" precision="FP16">
					<dim>1</dim>
					<dim>1</dim>
					<dim>16</dim>
					<dim>2401</dim>
					<dim>64</dim>
				</port>
			</input>
			<output>
				<port id="1" precision="FP16">
					<dim>1</dim>
					<dim>1</dim>
					<dim>38416</dim>
					<dim>64</dim>
				</port>
			</output>
		</layer>
		<layer id="128" name="__module.model.encoder.backbone.blocks.4.attn/prim::ListUnpack/Squeeze_1" type="Reshape">
			<data execOrder="547" execTimeMcs="not_executed" originalLayersNames="__module.model.encoder.backbone.blocks.4.attn/prim::ListUnpack/Squeeze_1" outputLayouts="bfyx" outputPrecisions="f16" primitiveType="undef" runtimePrecision="f16" />
			<input>
				<port id="0" precision="FP16">
					<dim>1</dim>
					<dim>1</dim>
					<dim>38416</dim>
					<dim>64</dim>
				</port>
			</input>
			<output>
				<port id="1" precision="FP16">
					<dim>1</dim>
					<dim>16</dim>
					<dim>2401</dim>
					<dim>64</dim>
				</port>
			</output>
		</layer>
		<layer id="129" name="__module.model.encoder.backbone.blocks.4.attn/aten::scaled_dot_product_attention/ScaledDotProductAttention" type="scaled_dot_product_attention">
			<data execOrder="554" execTimeMcs="16697" originalLayersNames="__module.model.encoder.backbone.blocks.4.attn/aten::scaled_dot_product_attention/ScaledDotProductAttention" outputLayouts="bfyx" outputPrecisions="f16" primitiveType="ocl::sdpa::opt__f16" runtimePrecision="f16" />
			<input>
				<port id="0" precision="FP16">
					<dim>1</dim>
					<dim>16</dim>
					<dim>2401</dim>
					<dim>64</dim>
				</port>
				<port id="1" precision="FP16">
					<dim>1</dim>
					<dim>16</dim>
					<dim>2401</dim>
					<dim>64</dim>
				</port>
				<port id="2" precision="FP16">
					<dim>1</dim>
					<dim>16</dim>
					<dim>2401</dim>
					<dim>64</dim>
				</port>
			</input>
			<output>
				<port id="3" precision="FP16">
					<dim>1</dim>
					<dim>16</dim>
					<dim>2401</dim>
					<dim>64</dim>
				</port>
			</output>
		</layer>
		<layer id="130" name="__module.model.encoder.backbone.blocks.4.attn/aten::permute/Transpose_1" type="Permute">
			<data execOrder="555" execTimeMcs="1243" originalLayersNames="__module.model.encoder.backbone.blocks.4.attn/aten::permute/Transpose_1" outputLayouts="bfyx" outputPrecisions="f16" primitiveType="permute_ref__f16" runtimePrecision="f16" />
			<input>
				<port id="0" precision="FP16">
					<dim>1</dim>
					<dim>16</dim>
					<dim>2401</dim>
					<dim>64</dim>
				</port>
			</input>
			<output>
				<port id="1" precision="FP16">
					<dim>1</dim>
					<dim>2401</dim>
					<dim>16</dim>
					<dim>64</dim>
				</port>
			</output>
		</layer>
		<layer id="131" name="__module.model.encoder.backbone.blocks.4.attn/aten::reshape/Reshape_1" type="Reshape">
			<data execOrder="556" execTimeMcs="not_executed" originalLayersNames="__module.model.encoder.backbone.blocks.4.attn/aten::reshape/Reshape_1" outputLayouts="bfyx" outputPrecisions="f16" primitiveType="undef" runtimePrecision="f16" />
			<input>
				<port id="0" precision="FP16">
					<dim>1</dim>
					<dim>2401</dim>
					<dim>16</dim>
					<dim>64</dim>
				</port>
			</input>
			<output>
				<port id="1" precision="FP16">
					<dim>1</dim>
					<dim>2401</dim>
					<dim>1024</dim>
					<dim>1</dim>
				</port>
			</output>
		</layer>
		<layer id="132" name="Multiply_59662" type="FullyConnected">
			<data execOrder="557" execTimeMcs="1797" originalLayersNames="Multiply_59662,__module.model.encoder.backbone.blocks.4.ls1/aten::mul/Multiply,__module.model.encoder.backbone.blocks.4/aten::add/Add" outputLayouts="bfyx" outputPrecisions="f16" primitiveType="jit:gemm:any__f16" runtimePrecision="f16" />
			<input>
				<port id="0" precision="FP16">
					<dim>1</dim>
					<dim>2401</dim>
					<dim>1024</dim>
					<dim>1</dim>
				</port>
				<port id="1" precision="FP16">
					<dim>1</dim>
					<dim>2401</dim>
					<dim>1024</dim>
					<dim>1</dim>
				</port>
			</input>
			<output>
				<port id="2" precision="FP16">
					<dim>1</dim>
					<dim>2401</dim>
					<dim>1024</dim>
					<dim>1</dim>
				</port>
				<port id="3" precision="FP16">
					<dim>1</dim>
					<dim>2401</dim>
					<dim>1024</dim>
					<dim>1</dim>
				</port>
			</output>
		</layer>
		<layer id="133" name="__module.model.encoder.backbone.blocks.4.norm2/aten::layer_norm/MVN" type="MVN">
			<data execOrder="558" execTimeMcs="83" originalLayersNames="__module.model.encoder.backbone.blocks.4.norm2/aten::layer_norm/MVN,__module.model.encoder.backbone.blocks.4.norm2/aten::layer_norm/Multiply_1,__module.model.encoder.backbone.blocks.4.norm2/aten::layer_norm/Add" outputLayouts="bfyx" outputPrecisions="f16" primitiveType="mvn_gpu_bfyx_opt__f16" runtimePrecision="f16" />
			<input>
				<port id="0" precision="FP16">
					<dim>1</dim>
					<dim>2401</dim>
					<dim>1024</dim>
					<dim>1</dim>
				</port>
			</input>
			<output>
				<port id="1" precision="FP16">
					<dim>1</dim>
					<dim>2401</dim>
					<dim>1024</dim>
					<dim>1</dim>
				</port>
			</output>
		</layer>
		<layer id="134" name="__module.model.encoder.backbone.blocks.4.mlp.fc1/aten::linear/MatMul" type="FullyConnected">
			<data execOrder="559" execTimeMcs="4700" originalLayersNames="__module.model.encoder.backbone.blocks.4.mlp.fc1/aten::linear/MatMul,__module.model.encoder.backbone.blocks.4.mlp.fc1/aten::linear/Add,__module.model.encoder.backbone.blocks.4.mlp.act/aten::gelu/Gelu" outputLayouts="bfyx" outputPrecisions="f16" primitiveType="jit:gemm:any__f16" runtimePrecision="f16" />
			<input>
				<port id="0" precision="FP16">
					<dim>1</dim>
					<dim>2401</dim>
					<dim>1024</dim>
					<dim>1</dim>
				</port>
			</input>
			<output>
				<port id="1" precision="FP16">
					<dim>1</dim>
					<dim>2401</dim>
					<dim>4096</dim>
					<dim>1</dim>
				</port>
			</output>
		</layer>
		<layer id="135" name="Multiply_59666" type="FullyConnected">
			<data execOrder="560" execTimeMcs="4536" originalLayersNames="Multiply_59666,__module.model.encoder.backbone.blocks.4.ls2/aten::mul/Multiply,__module.model.encoder.backbone.blocks.4/aten::add/Add_1" outputLayouts="bfyx" outputPrecisions="f16" primitiveType="jit:gemm:any__f16" runtimePrecision="f16" />
			<input>
				<port id="0" precision="FP16">
					<dim>1</dim>
					<dim>2401</dim>
					<dim>4096</dim>
					<dim>1</dim>
				</port>
				<port id="1" precision="FP16">
					<dim>1</dim>
					<dim>2401</dim>
					<dim>1024</dim>
					<dim>1</dim>
				</port>
			</input>
			<output>
				<port id="2" precision="FP16">
					<dim>1</dim>
					<dim>2401</dim>
					<dim>1024</dim>
					<dim>1</dim>
				</port>
				<port id="3" precision="FP16">
					<dim>1</dim>
					<dim>2401</dim>
					<dim>1024</dim>
					<dim>1</dim>
				</port>
			</output>
		</layer>
		<layer id="136" name="__module.model.encoder.backbone.blocks.5.norm1/aten::layer_norm/MVN" type="MVN">
			<data execOrder="561" execTimeMcs="1083" originalLayersNames="__module.model.encoder.backbone.blocks.5.norm1/aten::layer_norm/MVN,__module.model.encoder.backbone.blocks.5.norm1/aten::layer_norm/Multiply_1,__module.model.encoder.backbone.blocks.5.norm1/aten::layer_norm/Add" outputLayouts="bfyx" outputPrecisions="f16" primitiveType="mvn_gpu_bfyx_opt__f16" runtimePrecision="f16" />
			<input>
				<port id="0" precision="FP16">
					<dim>1</dim>
					<dim>2401</dim>
					<dim>1024</dim>
					<dim>1</dim>
				</port>
			</input>
			<output>
				<port id="1" precision="FP16">
					<dim>1</dim>
					<dim>2401</dim>
					<dim>1024</dim>
					<dim>1</dim>
				</port>
			</output>
		</layer>
		<layer id="137" name="__module.model.encoder.backbone.blocks.5.attn.qkv/aten::linear/MatMul" type="FullyConnected">
			<data execOrder="562" execTimeMcs="1633" originalLayersNames="__module.model.encoder.backbone.blocks.5.attn.qkv/aten::linear/MatMul,__module.model.encoder.backbone.blocks.5.attn.qkv/aten::linear/Add" outputLayouts="bfyx" outputPrecisions="f16" primitiveType="jit:gemm:any__f16" runtimePrecision="f16" />
			<input>
				<port id="0" precision="FP16">
					<dim>1</dim>
					<dim>2401</dim>
					<dim>1024</dim>
					<dim>1</dim>
				</port>
			</input>
			<output>
				<port id="1" precision="FP16">
					<dim>1</dim>
					<dim>2401</dim>
					<dim>3072</dim>
					<dim>1</dim>
				</port>
			</output>
		</layer>
		<layer id="138" name="__module.model.encoder.backbone.blocks.5.attn/aten::reshape/Reshape_reorder" type="Reorder">
			<data execOrder="563" execTimeMcs="not_executed" originalLayersNames="__module.model.encoder.backbone.blocks.5.attn/aten::reshape/Reshape" outputLayouts="bfzyx" outputPrecisions="f16" primitiveType="undef" runtimePrecision="f16" />
			<input>
				<port id="0" precision="FP16">
					<dim>1</dim>
					<dim>2401</dim>
					<dim>3072</dim>
					<dim>1</dim>
				</port>
			</input>
			<output>
				<port id="1" precision="FP16">
					<dim>1</dim>
					<dim>2401</dim>
					<dim>1</dim>
					<dim>3072</dim>
					<dim>1</dim>
				</port>
			</output>
		</layer>
		<layer id="139" name="__module.model.encoder.backbone.blocks.5.attn/aten::reshape/Reshape" type="Reshape">
			<data execOrder="564" execTimeMcs="not_executed" originalLayersNames="__module.model.encoder.backbone.blocks.5.attn/aten::reshape/Reshape" outputLayouts="bfzyx" outputPrecisions="f16" primitiveType="undef" runtimePrecision="f16" />
			<input>
				<port id="0" precision="FP16">
					<dim>1</dim>
					<dim>2401</dim>
					<dim>1</dim>
					<dim>3072</dim>
					<dim>1</dim>
				</port>
			</input>
			<output>
				<port id="1" precision="FP16">
					<dim>1</dim>
					<dim>2401</dim>
					<dim>3</dim>
					<dim>16</dim>
					<dim>64</dim>
				</port>
			</output>
		</layer>
		<layer id="140" name="__module.model.encoder.backbone.blocks.5.attn/aten::permute/Transpose" type="Permute">
			<data execOrder="565" execTimeMcs="320" originalLayersNames="__module.model.encoder.backbone.blocks.5.attn/aten::permute/Transpose" outputLayouts="bfzyx" outputPrecisions="f16" primitiveType="permute_ref__f16" runtimePrecision="f16" />
			<input>
				<port id="0" precision="FP16">
					<dim>1</dim>
					<dim>2401</dim>
					<dim>3</dim>
					<dim>16</dim>
					<dim>64</dim>
				</port>
			</input>
			<output>
				<port id="1" precision="FP16">
					<dim>3</dim>
					<dim>1</dim>
					<dim>16</dim>
					<dim>2401</dim>
					<dim>64</dim>
				</port>
				<port id="2" precision="FP16">
					<dim>3</dim>
					<dim>1</dim>
					<dim>16</dim>
					<dim>2401</dim>
					<dim>64</dim>
				</port>
				<port id="3" precision="FP16">
					<dim>3</dim>
					<dim>1</dim>
					<dim>16</dim>
					<dim>2401</dim>
					<dim>64</dim>
				</port>
			</output>
		</layer>
		<layer id="141" name="__module.model.encoder.backbone.blocks.5.attn/prim::ListUnpack/Split.out0" type="Crop">
			<data execOrder="572" execTimeMcs="not_executed" originalLayersNames="__module.model.encoder.backbone.blocks.5.attn/prim::ListUnpack/Split" outputLayouts="bfzyx" outputPrecisions="f16" primitiveType="undef" runtimePrecision="f16" />
			<input>
				<port id="0" precision="FP16">
					<dim>3</dim>
					<dim>1</dim>
					<dim>16</dim>
					<dim>2401</dim>
					<dim>64</dim>
				</port>
			</input>
			<output>
				<port id="1" precision="FP16">
					<dim>1</dim>
					<dim>1</dim>
					<dim>16</dim>
					<dim>2401</dim>
					<dim>64</dim>
				</port>
			</output>
		</layer>
		<layer id="142" name="__module.model.encoder.backbone.blocks.5.attn/prim::ListUnpack/Squeeze_reorder" type="Reorder">
			<data execOrder="573" execTimeMcs="126" originalLayersNames="__module.model.encoder.backbone.blocks.5.attn/prim::ListUnpack/Squeeze" outputLayouts="bfyx" outputPrecisions="f16" primitiveType="reorder_data_fast_b1__f16" runtimePrecision="f16" />
			<input>
				<port id="0" precision="FP16">
					<dim>1</dim>
					<dim>1</dim>
					<dim>16</dim>
					<dim>2401</dim>
					<dim>64</dim>
				</port>
			</input>
			<output>
				<port id="1" precision="FP16">
					<dim>1</dim>
					<dim>1</dim>
					<dim>38416</dim>
					<dim>64</dim>
				</port>
			</output>
		</layer>
		<layer id="143" name="__module.model.encoder.backbone.blocks.5.attn/prim::ListUnpack/Squeeze" type="Reshape">
			<data execOrder="574" execTimeMcs="not_executed" originalLayersNames="__module.model.encoder.backbone.blocks.5.attn/prim::ListUnpack/Squeeze" outputLayouts="bfyx" outputPrecisions="f16" primitiveType="undef" runtimePrecision="f16" />
			<input>
				<port id="0" precision="FP16">
					<dim>1</dim>
					<dim>1</dim>
					<dim>38416</dim>
					<dim>64</dim>
				</port>
			</input>
			<output>
				<port id="1" precision="FP16">
					<dim>1</dim>
					<dim>16</dim>
					<dim>2401</dim>
					<dim>64</dim>
				</port>
			</output>
		</layer>
		<layer id="144" name="__module.model.encoder.backbone.blocks.5.attn/prim::ListUnpack/Split.out1" type="Crop">
			<data execOrder="569" execTimeMcs="not_executed" originalLayersNames="__module.model.encoder.backbone.blocks.5.attn/prim::ListUnpack/Split" outputLayouts="bfzyx" outputPrecisions="f16" primitiveType="undef" runtimePrecision="f16" />
			<input>
				<port id="0" precision="FP16">
					<dim>3</dim>
					<dim>1</dim>
					<dim>16</dim>
					<dim>2401</dim>
					<dim>64</dim>
				</port>
			</input>
			<output>
				<port id="1" precision="FP16">
					<dim>1</dim>
					<dim>1</dim>
					<dim>16</dim>
					<dim>2401</dim>
					<dim>64</dim>
				</port>
			</output>
		</layer>
		<layer id="145" name="__module.model.encoder.backbone.blocks.5.attn/prim::ListUnpack/Squeeze_0_reorder" type="Reorder">
			<data execOrder="570" execTimeMcs="133" originalLayersNames="__module.model.encoder.backbone.blocks.5.attn/prim::ListUnpack/Squeeze_0" outputLayouts="bfyx" outputPrecisions="f16" primitiveType="reorder_data_fast_b1__f16" runtimePrecision="f16" />
			<input>
				<port id="0" precision="FP16">
					<dim>1</dim>
					<dim>1</dim>
					<dim>16</dim>
					<dim>2401</dim>
					<dim>64</dim>
				</port>
			</input>
			<output>
				<port id="1" precision="FP16">
					<dim>1</dim>
					<dim>1</dim>
					<dim>38416</dim>
					<dim>64</dim>
				</port>
			</output>
		</layer>
		<layer id="146" name="__module.model.encoder.backbone.blocks.5.attn/prim::ListUnpack/Squeeze_0" type="Reshape">
			<data execOrder="571" execTimeMcs="not_executed" originalLayersNames="__module.model.encoder.backbone.blocks.5.attn/prim::ListUnpack/Squeeze_0" outputLayouts="bfyx" outputPrecisions="f16" primitiveType="undef" runtimePrecision="f16" />
			<input>
				<port id="0" precision="FP16">
					<dim>1</dim>
					<dim>1</dim>
					<dim>38416</dim>
					<dim>64</dim>
				</port>
			</input>
			<output>
				<port id="1" precision="FP16">
					<dim>1</dim>
					<dim>16</dim>
					<dim>2401</dim>
					<dim>64</dim>
				</port>
			</output>
		</layer>
		<layer id="147" name="__module.model.encoder.backbone.blocks.5.attn/prim::ListUnpack/Split.out2" type="Crop">
			<data execOrder="566" execTimeMcs="not_executed" originalLayersNames="__module.model.encoder.backbone.blocks.5.attn/prim::ListUnpack/Split" outputLayouts="bfzyx" outputPrecisions="f16" primitiveType="undef" runtimePrecision="f16" />
			<input>
				<port id="0" precision="FP16">
					<dim>3</dim>
					<dim>1</dim>
					<dim>16</dim>
					<dim>2401</dim>
					<dim>64</dim>
				</port>
			</input>
			<output>
				<port id="1" precision="FP16">
					<dim>1</dim>
					<dim>1</dim>
					<dim>16</dim>
					<dim>2401</dim>
					<dim>64</dim>
				</port>
			</output>
		</layer>
		<layer id="148" name="__module.model.encoder.backbone.blocks.5.attn/prim::ListUnpack/Squeeze_1_reorder" type="Reorder">
			<data execOrder="567" execTimeMcs="116" originalLayersNames="__module.model.encoder.backbone.blocks.5.attn/prim::ListUnpack/Squeeze_1" outputLayouts="bfyx" outputPrecisions="f16" primitiveType="reorder_data_fast_b1__f16" runtimePrecision="f16" />
			<input>
				<port id="0" precision="FP16">
					<dim>1</dim>
					<dim>1</dim>
					<dim>16</dim>
					<dim>2401</dim>
					<dim>64</dim>
				</port>
			</input>
			<output>
				<port id="1" precision="FP16">
					<dim>1</dim>
					<dim>1</dim>
					<dim>38416</dim>
					<dim>64</dim>
				</port>
			</output>
		</layer>
		<layer id="149" name="__module.model.encoder.backbone.blocks.5.attn/prim::ListUnpack/Squeeze_1" type="Reshape">
			<data execOrder="568" execTimeMcs="not_executed" originalLayersNames="__module.model.encoder.backbone.blocks.5.attn/prim::ListUnpack/Squeeze_1" outputLayouts="bfyx" outputPrecisions="f16" primitiveType="undef" runtimePrecision="f16" />
			<input>
				<port id="0" precision="FP16">
					<dim>1</dim>
					<dim>1</dim>
					<dim>38416</dim>
					<dim>64</dim>
				</port>
			</input>
			<output>
				<port id="1" precision="FP16">
					<dim>1</dim>
					<dim>16</dim>
					<dim>2401</dim>
					<dim>64</dim>
				</port>
			</output>
		</layer>
		<layer id="150" name="__module.model.encoder.backbone.blocks.5.attn/aten::scaled_dot_product_attention/ScaledDotProductAttention" type="scaled_dot_product_attention">
			<data execOrder="575" execTimeMcs="11679" originalLayersNames="__module.model.encoder.backbone.blocks.5.attn/aten::scaled_dot_product_attention/ScaledDotProductAttention" outputLayouts="bfyx" outputPrecisions="f16" primitiveType="ocl::sdpa::opt__f16" runtimePrecision="f16" />
			<input>
				<port id="0" precision="FP16">
					<dim>1</dim>
					<dim>16</dim>
					<dim>2401</dim>
					<dim>64</dim>
				</port>
				<port id="1" precision="FP16">
					<dim>1</dim>
					<dim>16</dim>
					<dim>2401</dim>
					<dim>64</dim>
				</port>
				<port id="2" precision="FP16">
					<dim>1</dim>
					<dim>16</dim>
					<dim>2401</dim>
					<dim>64</dim>
				</port>
			</input>
			<output>
				<port id="3" precision="FP16">
					<dim>1</dim>
					<dim>16</dim>
					<dim>2401</dim>
					<dim>64</dim>
				</port>
			</output>
		</layer>
		<layer id="151" name="__module.model.encoder.backbone.blocks.5.attn/aten::permute/Transpose_1" type="Permute">
			<data execOrder="576" execTimeMcs="1037" originalLayersNames="__module.model.encoder.backbone.blocks.5.attn/aten::permute/Transpose_1" outputLayouts="bfyx" outputPrecisions="f16" primitiveType="permute_ref__f16" runtimePrecision="f16" />
			<input>
				<port id="0" precision="FP16">
					<dim>1</dim>
					<dim>16</dim>
					<dim>2401</dim>
					<dim>64</dim>
				</port>
			</input>
			<output>
				<port id="1" precision="FP16">
					<dim>1</dim>
					<dim>2401</dim>
					<dim>16</dim>
					<dim>64</dim>
				</port>
			</output>
		</layer>
		<layer id="152" name="__module.model.encoder.backbone.blocks.5.attn/aten::reshape/Reshape_1" type="Reshape">
			<data execOrder="577" execTimeMcs="not_executed" originalLayersNames="__module.model.encoder.backbone.blocks.5.attn/aten::reshape/Reshape_1" outputLayouts="bfyx" outputPrecisions="f16" primitiveType="undef" runtimePrecision="f16" />
			<input>
				<port id="0" precision="FP16">
					<dim>1</dim>
					<dim>2401</dim>
					<dim>16</dim>
					<dim>64</dim>
				</port>
			</input>
			<output>
				<port id="1" precision="FP16">
					<dim>1</dim>
					<dim>2401</dim>
					<dim>1024</dim>
					<dim>1</dim>
				</port>
			</output>
		</layer>
		<layer id="153" name="Multiply_59670" type="FullyConnected">
			<data execOrder="578" execTimeMcs="2962" originalLayersNames="Multiply_59670,__module.model.encoder.backbone.blocks.5.ls1/aten::mul/Multiply,__module.model.encoder.backbone.blocks.5/aten::add/Add" outputLayouts="bfyx" outputPrecisions="f16" primitiveType="jit:gemm:any__f16" runtimePrecision="f16" />
			<input>
				<port id="0" precision="FP16">
					<dim>1</dim>
					<dim>2401</dim>
					<dim>1024</dim>
					<dim>1</dim>
				</port>
				<port id="1" precision="FP16">
					<dim>1</dim>
					<dim>2401</dim>
					<dim>1024</dim>
					<dim>1</dim>
				</port>
			</input>
			<output>
				<port id="2" precision="FP16">
					<dim>1</dim>
					<dim>2401</dim>
					<dim>1024</dim>
					<dim>1</dim>
				</port>
				<port id="3" precision="FP16">
					<dim>1</dim>
					<dim>2401</dim>
					<dim>1024</dim>
					<dim>1</dim>
				</port>
			</output>
		</layer>
		<layer id="154" name="__module.model.encoder.backbone.blocks.5.norm2/aten::layer_norm/MVN" type="MVN">
			<data execOrder="579" execTimeMcs="1277" originalLayersNames="__module.model.encoder.backbone.blocks.5.norm2/aten::layer_norm/MVN,__module.model.encoder.backbone.blocks.5.norm2/aten::layer_norm/Multiply_1,__module.model.encoder.backbone.blocks.5.norm2/aten::layer_norm/Add" outputLayouts="bfyx" outputPrecisions="f16" primitiveType="mvn_gpu_bfyx_opt__f16" runtimePrecision="f16" />
			<input>
				<port id="0" precision="FP16">
					<dim>1</dim>
					<dim>2401</dim>
					<dim>1024</dim>
					<dim>1</dim>
				</port>
			</input>
			<output>
				<port id="1" precision="FP16">
					<dim>1</dim>
					<dim>2401</dim>
					<dim>1024</dim>
					<dim>1</dim>
				</port>
			</output>
		</layer>
		<layer id="155" name="__module.model.encoder.backbone.blocks.5.mlp.fc1/aten::linear/MatMul" type="FullyConnected">
			<data execOrder="580" execTimeMcs="6958" originalLayersNames="__module.model.encoder.backbone.blocks.5.mlp.fc1/aten::linear/MatMul,__module.model.encoder.backbone.blocks.5.mlp.fc1/aten::linear/Add,__module.model.encoder.backbone.blocks.5.mlp.act/aten::gelu/Gelu" outputLayouts="bfyx" outputPrecisions="f16" primitiveType="jit:gemm:any__f16" runtimePrecision="f16" />
			<input>
				<port id="0" precision="FP16">
					<dim>1</dim>
					<dim>2401</dim>
					<dim>1024</dim>
					<dim>1</dim>
				</port>
			</input>
			<output>
				<port id="1" precision="FP16">
					<dim>1</dim>
					<dim>2401</dim>
					<dim>4096</dim>
					<dim>1</dim>
				</port>
			</output>
		</layer>
		<layer id="156" name="Multiply_59674" type="FullyConnected">
			<data execOrder="581" execTimeMcs="5208" originalLayersNames="Multiply_59674,__module.model.encoder.backbone.blocks.5.ls2/aten::mul/Multiply,__module.model.encoder.backbone.blocks.5/aten::add/Add_1" outputLayouts="bfyx" outputPrecisions="f16" primitiveType="jit:gemm:any__f16" runtimePrecision="f16" />
			<input>
				<port id="0" precision="FP16">
					<dim>1</dim>
					<dim>2401</dim>
					<dim>4096</dim>
					<dim>1</dim>
				</port>
				<port id="1" precision="FP16">
					<dim>1</dim>
					<dim>2401</dim>
					<dim>1024</dim>
					<dim>1</dim>
				</port>
			</input>
			<output>
				<port id="2" precision="FP16">
					<dim>1</dim>
					<dim>2401</dim>
					<dim>1024</dim>
					<dim>1</dim>
				</port>
				<port id="3" precision="FP16">
					<dim>1</dim>
					<dim>2401</dim>
					<dim>1024</dim>
					<dim>1</dim>
				</port>
			</output>
		</layer>
		<layer id="157" name="__module.model.encoder.backbone.blocks.6.norm1/aten::layer_norm/MVN" type="MVN">
			<data execOrder="582" execTimeMcs="495" originalLayersNames="__module.model.encoder.backbone.blocks.6.norm1/aten::layer_norm/MVN,__module.model.encoder.backbone.blocks.6.norm1/aten::layer_norm/Multiply_1,__module.model.encoder.backbone.blocks.6.norm1/aten::layer_norm/Add" outputLayouts="bfyx" outputPrecisions="f16" primitiveType="mvn_gpu_bfyx_opt__f16" runtimePrecision="f16" />
			<input>
				<port id="0" precision="FP16">
					<dim>1</dim>
					<dim>2401</dim>
					<dim>1024</dim>
					<dim>1</dim>
				</port>
			</input>
			<output>
				<port id="1" precision="FP16">
					<dim>1</dim>
					<dim>2401</dim>
					<dim>1024</dim>
					<dim>1</dim>
				</port>
			</output>
		</layer>
		<layer id="158" name="__module.model.encoder.backbone.blocks.6.attn.qkv/aten::linear/MatMul" type="FullyConnected">
			<data execOrder="583" execTimeMcs="3558" originalLayersNames="__module.model.encoder.backbone.blocks.6.attn.qkv/aten::linear/MatMul,__module.model.encoder.backbone.blocks.6.attn.qkv/aten::linear/Add" outputLayouts="bfyx" outputPrecisions="f16" primitiveType="jit:gemm:any__f16" runtimePrecision="f16" />
			<input>
				<port id="0" precision="FP16">
					<dim>1</dim>
					<dim>2401</dim>
					<dim>1024</dim>
					<dim>1</dim>
				</port>
			</input>
			<output>
				<port id="1" precision="FP16">
					<dim>1</dim>
					<dim>2401</dim>
					<dim>3072</dim>
					<dim>1</dim>
				</port>
			</output>
		</layer>
		<layer id="159" name="__module.model.encoder.backbone.blocks.6.attn/aten::reshape/Reshape_reorder" type="Reorder">
			<data execOrder="584" execTimeMcs="not_executed" originalLayersNames="__module.model.encoder.backbone.blocks.6.attn/aten::reshape/Reshape" outputLayouts="bfzyx" outputPrecisions="f16" primitiveType="undef" runtimePrecision="f16" />
			<input>
				<port id="0" precision="FP16">
					<dim>1</dim>
					<dim>2401</dim>
					<dim>3072</dim>
					<dim>1</dim>
				</port>
			</input>
			<output>
				<port id="1" precision="FP16">
					<dim>1</dim>
					<dim>2401</dim>
					<dim>1</dim>
					<dim>3072</dim>
					<dim>1</dim>
				</port>
			</output>
		</layer>
		<layer id="160" name="__module.model.encoder.backbone.blocks.6.attn/aten::reshape/Reshape" type="Reshape">
			<data execOrder="585" execTimeMcs="not_executed" originalLayersNames="__module.model.encoder.backbone.blocks.6.attn/aten::reshape/Reshape" outputLayouts="bfzyx" outputPrecisions="f16" primitiveType="undef" runtimePrecision="f16" />
			<input>
				<port id="0" precision="FP16">
					<dim>1</dim>
					<dim>2401</dim>
					<dim>1</dim>
					<dim>3072</dim>
					<dim>1</dim>
				</port>
			</input>
			<output>
				<port id="1" precision="FP16">
					<dim>1</dim>
					<dim>2401</dim>
					<dim>3</dim>
					<dim>16</dim>
					<dim>64</dim>
				</port>
			</output>
		</layer>
		<layer id="161" name="__module.model.encoder.backbone.blocks.6.attn/aten::permute/Transpose" type="Permute">
			<data execOrder="586" execTimeMcs="320" originalLayersNames="__module.model.encoder.backbone.blocks.6.attn/aten::permute/Transpose" outputLayouts="bfzyx" outputPrecisions="f16" primitiveType="permute_ref__f16" runtimePrecision="f16" />
			<input>
				<port id="0" precision="FP16">
					<dim>1</dim>
					<dim>2401</dim>
					<dim>3</dim>
					<dim>16</dim>
					<dim>64</dim>
				</port>
			</input>
			<output>
				<port id="1" precision="FP16">
					<dim>3</dim>
					<dim>1</dim>
					<dim>16</dim>
					<dim>2401</dim>
					<dim>64</dim>
				</port>
				<port id="2" precision="FP16">
					<dim>3</dim>
					<dim>1</dim>
					<dim>16</dim>
					<dim>2401</dim>
					<dim>64</dim>
				</port>
				<port id="3" precision="FP16">
					<dim>3</dim>
					<dim>1</dim>
					<dim>16</dim>
					<dim>2401</dim>
					<dim>64</dim>
				</port>
			</output>
		</layer>
		<layer id="162" name="__module.model.encoder.backbone.blocks.6.attn/prim::ListUnpack/Split.out0" type="Crop">
			<data execOrder="593" execTimeMcs="not_executed" originalLayersNames="__module.model.encoder.backbone.blocks.6.attn/prim::ListUnpack/Split" outputLayouts="bfzyx" outputPrecisions="f16" primitiveType="undef" runtimePrecision="f16" />
			<input>
				<port id="0" precision="FP16">
					<dim>3</dim>
					<dim>1</dim>
					<dim>16</dim>
					<dim>2401</dim>
					<dim>64</dim>
				</port>
			</input>
			<output>
				<port id="1" precision="FP16">
					<dim>1</dim>
					<dim>1</dim>
					<dim>16</dim>
					<dim>2401</dim>
					<dim>64</dim>
				</port>
			</output>
		</layer>
		<layer id="163" name="__module.model.encoder.backbone.blocks.6.attn/prim::ListUnpack/Squeeze_reorder" type="Reorder">
			<data execOrder="594" execTimeMcs="126" originalLayersNames="__module.model.encoder.backbone.blocks.6.attn/prim::ListUnpack/Squeeze" outputLayouts="bfyx" outputPrecisions="f16" primitiveType="reorder_data_fast_b1__f16" runtimePrecision="f16" />
			<input>
				<port id="0" precision="FP16">
					<dim>1</dim>
					<dim>1</dim>
					<dim>16</dim>
					<dim>2401</dim>
					<dim>64</dim>
				</port>
			</input>
			<output>
				<port id="1" precision="FP16">
					<dim>1</dim>
					<dim>1</dim>
					<dim>38416</dim>
					<dim>64</dim>
				</port>
			</output>
		</layer>
		<layer id="164" name="__module.model.encoder.backbone.blocks.6.attn/prim::ListUnpack/Squeeze" type="Reshape">
			<data execOrder="595" execTimeMcs="not_executed" originalLayersNames="__module.model.encoder.backbone.blocks.6.attn/prim::ListUnpack/Squeeze" outputLayouts="bfyx" outputPrecisions="f16" primitiveType="undef" runtimePrecision="f16" />
			<input>
				<port id="0" precision="FP16">
					<dim>1</dim>
					<dim>1</dim>
					<dim>38416</dim>
					<dim>64</dim>
				</port>
			</input>
			<output>
				<port id="1" precision="FP16">
					<dim>1</dim>
					<dim>16</dim>
					<dim>2401</dim>
					<dim>64</dim>
				</port>
			</output>
		</layer>
		<layer id="165" name="__module.model.encoder.backbone.blocks.6.attn/prim::ListUnpack/Split.out1" type="Crop">
			<data execOrder="590" execTimeMcs="not_executed" originalLayersNames="__module.model.encoder.backbone.blocks.6.attn/prim::ListUnpack/Split" outputLayouts="bfzyx" outputPrecisions="f16" primitiveType="undef" runtimePrecision="f16" />
			<input>
				<port id="0" precision="FP16">
					<dim>3</dim>
					<dim>1</dim>
					<dim>16</dim>
					<dim>2401</dim>
					<dim>64</dim>
				</port>
			</input>
			<output>
				<port id="1" precision="FP16">
					<dim>1</dim>
					<dim>1</dim>
					<dim>16</dim>
					<dim>2401</dim>
					<dim>64</dim>
				</port>
			</output>
		</layer>
		<layer id="166" name="__module.model.encoder.backbone.blocks.6.attn/prim::ListUnpack/Squeeze_0_reorder" type="Reorder">
			<data execOrder="591" execTimeMcs="133" originalLayersNames="__module.model.encoder.backbone.blocks.6.attn/prim::ListUnpack/Squeeze_0" outputLayouts="bfyx" outputPrecisions="f16" primitiveType="reorder_data_fast_b1__f16" runtimePrecision="f16" />
			<input>
				<port id="0" precision="FP16">
					<dim>1</dim>
					<dim>1</dim>
					<dim>16</dim>
					<dim>2401</dim>
					<dim>64</dim>
				</port>
			</input>
			<output>
				<port id="1" precision="FP16">
					<dim>1</dim>
					<dim>1</dim>
					<dim>38416</dim>
					<dim>64</dim>
				</port>
			</output>
		</layer>
		<layer id="167" name="__module.model.encoder.backbone.blocks.6.attn/prim::ListUnpack/Squeeze_0" type="Reshape">
			<data execOrder="592" execTimeMcs="not_executed" originalLayersNames="__module.model.encoder.backbone.blocks.6.attn/prim::ListUnpack/Squeeze_0" outputLayouts="bfyx" outputPrecisions="f16" primitiveType="undef" runtimePrecision="f16" />
			<input>
				<port id="0" precision="FP16">
					<dim>1</dim>
					<dim>1</dim>
					<dim>38416</dim>
					<dim>64</dim>
				</port>
			</input>
			<output>
				<port id="1" precision="FP16">
					<dim>1</dim>
					<dim>16</dim>
					<dim>2401</dim>
					<dim>64</dim>
				</port>
			</output>
		</layer>
		<layer id="168" name="__module.model.encoder.backbone.blocks.6.attn/prim::ListUnpack/Split.out2" type="Crop">
			<data execOrder="587" execTimeMcs="not_executed" originalLayersNames="__module.model.encoder.backbone.blocks.6.attn/prim::ListUnpack/Split" outputLayouts="bfzyx" outputPrecisions="f16" primitiveType="undef" runtimePrecision="f16" />
			<input>
				<port id="0" precision="FP16">
					<dim>3</dim>
					<dim>1</dim>
					<dim>16</dim>
					<dim>2401</dim>
					<dim>64</dim>
				</port>
			</input>
			<output>
				<port id="1" precision="FP16">
					<dim>1</dim>
					<dim>1</dim>
					<dim>16</dim>
					<dim>2401</dim>
					<dim>64</dim>
				</port>
			</output>
		</layer>
		<layer id="169" name="__module.model.encoder.backbone.blocks.6.attn/prim::ListUnpack/Squeeze_1_reorder" type="Reorder">
			<data execOrder="588" execTimeMcs="115" originalLayersNames="__module.model.encoder.backbone.blocks.6.attn/prim::ListUnpack/Squeeze_1" outputLayouts="bfyx" outputPrecisions="f16" primitiveType="reorder_data_fast_b1__f16" runtimePrecision="f16" />
			<input>
				<port id="0" precision="FP16">
					<dim>1</dim>
					<dim>1</dim>
					<dim>16</dim>
					<dim>2401</dim>
					<dim>64</dim>
				</port>
			</input>
			<output>
				<port id="1" precision="FP16">
					<dim>1</dim>
					<dim>1</dim>
					<dim>38416</dim>
					<dim>64</dim>
				</port>
			</output>
		</layer>
		<layer id="170" name="__module.model.encoder.backbone.blocks.6.attn/prim::ListUnpack/Squeeze_1" type="Reshape">
			<data execOrder="589" execTimeMcs="not_executed" originalLayersNames="__module.model.encoder.backbone.blocks.6.attn/prim::ListUnpack/Squeeze_1" outputLayouts="bfyx" outputPrecisions="f16" primitiveType="undef" runtimePrecision="f16" />
			<input>
				<port id="0" precision="FP16">
					<dim>1</dim>
					<dim>1</dim>
					<dim>38416</dim>
					<dim>64</dim>
				</port>
			</input>
			<output>
				<port id="1" precision="FP16">
					<dim>1</dim>
					<dim>16</dim>
					<dim>2401</dim>
					<dim>64</dim>
				</port>
			</output>
		</layer>
		<layer id="171" name="__module.model.encoder.backbone.blocks.6.attn/aten::scaled_dot_product_attention/ScaledDotProductAttention" type="scaled_dot_product_attention">
			<data execOrder="596" execTimeMcs="3824" originalLayersNames="__module.model.encoder.backbone.blocks.6.attn/aten::scaled_dot_product_attention/ScaledDotProductAttention" outputLayouts="bfyx" outputPrecisions="f16" primitiveType="ocl::sdpa::opt__f16" runtimePrecision="f16" />
			<input>
				<port id="0" precision="FP16">
					<dim>1</dim>
					<dim>16</dim>
					<dim>2401</dim>
					<dim>64</dim>
				</port>
				<port id="1" precision="FP16">
					<dim>1</dim>
					<dim>16</dim>
					<dim>2401</dim>
					<dim>64</dim>
				</port>
				<port id="2" precision="FP16">
					<dim>1</dim>
					<dim>16</dim>
					<dim>2401</dim>
					<dim>64</dim>
				</port>
			</input>
			<output>
				<port id="3" precision="FP16">
					<dim>1</dim>
					<dim>16</dim>
					<dim>2401</dim>
					<dim>64</dim>
				</port>
			</output>
		</layer>
		<layer id="172" name="__module.model.encoder.backbone.blocks.6.attn/aten::permute/Transpose_1" type="Permute">
			<data execOrder="597" execTimeMcs="104" originalLayersNames="__module.model.encoder.backbone.blocks.6.attn/aten::permute/Transpose_1" outputLayouts="bfyx" outputPrecisions="f16" primitiveType="permute_ref__f16" runtimePrecision="f16" />
			<input>
				<port id="0" precision="FP16">
					<dim>1</dim>
					<dim>16</dim>
					<dim>2401</dim>
					<dim>64</dim>
				</port>
			</input>
			<output>
				<port id="1" precision="FP16">
					<dim>1</dim>
					<dim>2401</dim>
					<dim>16</dim>
					<dim>64</dim>
				</port>
			</output>
		</layer>
		<layer id="173" name="__module.model.encoder.backbone.blocks.6.attn/aten::reshape/Reshape_1" type="Reshape">
			<data execOrder="598" execTimeMcs="not_executed" originalLayersNames="__module.model.encoder.backbone.blocks.6.attn/aten::reshape/Reshape_1" outputLayouts="bfyx" outputPrecisions="f16" primitiveType="undef" runtimePrecision="f16" />
			<input>
				<port id="0" precision="FP16">
					<dim>1</dim>
					<dim>2401</dim>
					<dim>16</dim>
					<dim>64</dim>
				</port>
			</input>
			<output>
				<port id="1" precision="FP16">
					<dim>1</dim>
					<dim>2401</dim>
					<dim>1024</dim>
					<dim>1</dim>
				</port>
			</output>
		</layer>
		<layer id="174" name="Multiply_59678" type="FullyConnected">
			<data execOrder="599" execTimeMcs="362" originalLayersNames="Multiply_59678,__module.model.encoder.backbone.blocks.6.ls1/aten::mul/Multiply,__module.model.encoder.backbone.blocks.6/aten::add/Add" outputLayouts="bfyx" outputPrecisions="f16" primitiveType="jit:gemm:any__f16" runtimePrecision="f16" />
			<input>
				<port id="0" precision="FP16">
					<dim>1</dim>
					<dim>2401</dim>
					<dim>1024</dim>
					<dim>1</dim>
				</port>
				<port id="1" precision="FP16">
					<dim>1</dim>
					<dim>2401</dim>
					<dim>1024</dim>
					<dim>1</dim>
				</port>
			</input>
			<output>
				<port id="2" precision="FP16">
					<dim>1</dim>
					<dim>2401</dim>
					<dim>1024</dim>
					<dim>1</dim>
				</port>
				<port id="3" precision="FP16">
					<dim>1</dim>
					<dim>2401</dim>
					<dim>1024</dim>
					<dim>1</dim>
				</port>
			</output>
		</layer>
		<layer id="175" name="__module.model.encoder.backbone.blocks.6.norm2/aten::layer_norm/MVN" type="MVN">
			<data execOrder="600" execTimeMcs="948" originalLayersNames="__module.model.encoder.backbone.blocks.6.norm2/aten::layer_norm/MVN,__module.model.encoder.backbone.blocks.6.norm2/aten::layer_norm/Multiply_1,__module.model.encoder.backbone.blocks.6.norm2/aten::layer_norm/Add" outputLayouts="bfyx" outputPrecisions="f16" primitiveType="mvn_gpu_bfyx_opt__f16" runtimePrecision="f16" />
			<input>
				<port id="0" precision="FP16">
					<dim>1</dim>
					<dim>2401</dim>
					<dim>1024</dim>
					<dim>1</dim>
				</port>
			</input>
			<output>
				<port id="1" precision="FP16">
					<dim>1</dim>
					<dim>2401</dim>
					<dim>1024</dim>
					<dim>1</dim>
				</port>
			</output>
		</layer>
		<layer id="176" name="__module.model.encoder.backbone.blocks.6.mlp.fc1/aten::linear/MatMul" type="FullyConnected">
			<data execOrder="601" execTimeMcs="6905" originalLayersNames="__module.model.encoder.backbone.blocks.6.mlp.fc1/aten::linear/MatMul,__module.model.encoder.backbone.blocks.6.mlp.fc1/aten::linear/Add,__module.model.encoder.backbone.blocks.6.mlp.act/aten::gelu/Gelu" outputLayouts="bfyx" outputPrecisions="f16" primitiveType="jit:gemm:any__f16" runtimePrecision="f16" />
			<input>
				<port id="0" precision="FP16">
					<dim>1</dim>
					<dim>2401</dim>
					<dim>1024</dim>
					<dim>1</dim>
				</port>
			</input>
			<output>
				<port id="1" precision="FP16">
					<dim>1</dim>
					<dim>2401</dim>
					<dim>4096</dim>
					<dim>1</dim>
				</port>
			</output>
		</layer>
		<layer id="177" name="Multiply_59682" type="FullyConnected">
			<data execOrder="602" execTimeMcs="8885" originalLayersNames="Multiply_59682,__module.model.encoder.backbone.blocks.6.ls2/aten::mul/Multiply,__module.model.encoder.backbone.blocks.6/aten::add/Add_1" outputLayouts="bfyx" outputPrecisions="f16" primitiveType="jit:gemm:any__f16" runtimePrecision="f16" />
			<input>
				<port id="0" precision="FP16">
					<dim>1</dim>
					<dim>2401</dim>
					<dim>4096</dim>
					<dim>1</dim>
				</port>
				<port id="1" precision="FP16">
					<dim>1</dim>
					<dim>2401</dim>
					<dim>1024</dim>
					<dim>1</dim>
				</port>
			</input>
			<output>
				<port id="2" precision="FP16">
					<dim>1</dim>
					<dim>2401</dim>
					<dim>1024</dim>
					<dim>1</dim>
				</port>
				<port id="3" precision="FP16">
					<dim>1</dim>
					<dim>2401</dim>
					<dim>1024</dim>
					<dim>1</dim>
				</port>
			</output>
		</layer>
		<layer id="178" name="__module.model.encoder.backbone.blocks.7.norm1/aten::layer_norm/MVN" type="MVN">
			<data execOrder="603" execTimeMcs="568" originalLayersNames="__module.model.encoder.backbone.blocks.7.norm1/aten::layer_norm/MVN,__module.model.encoder.backbone.blocks.7.norm1/aten::layer_norm/Multiply_1,__module.model.encoder.backbone.blocks.7.norm1/aten::layer_norm/Add" outputLayouts="bfyx" outputPrecisions="f16" primitiveType="mvn_gpu_bfyx_opt__f16" runtimePrecision="f16" />
			<input>
				<port id="0" precision="FP16">
					<dim>1</dim>
					<dim>2401</dim>
					<dim>1024</dim>
					<dim>1</dim>
				</port>
			</input>
			<output>
				<port id="1" precision="FP16">
					<dim>1</dim>
					<dim>2401</dim>
					<dim>1024</dim>
					<dim>1</dim>
				</port>
			</output>
		</layer>
		<layer id="179" name="__module.model.encoder.backbone.blocks.7.attn.qkv/aten::linear/MatMul" type="FullyConnected">
			<data execOrder="604" execTimeMcs="1309" originalLayersNames="__module.model.encoder.backbone.blocks.7.attn.qkv/aten::linear/MatMul,__module.model.encoder.backbone.blocks.7.attn.qkv/aten::linear/Add" outputLayouts="bfyx" outputPrecisions="f16" primitiveType="jit:gemm:any__f16" runtimePrecision="f16" />
			<input>
				<port id="0" precision="FP16">
					<dim>1</dim>
					<dim>2401</dim>
					<dim>1024</dim>
					<dim>1</dim>
				</port>
			</input>
			<output>
				<port id="1" precision="FP16">
					<dim>1</dim>
					<dim>2401</dim>
					<dim>3072</dim>
					<dim>1</dim>
				</port>
			</output>
		</layer>
		<layer id="180" name="__module.model.encoder.backbone.blocks.7.attn/aten::reshape/Reshape_reorder" type="Reorder">
			<data execOrder="605" execTimeMcs="not_executed" originalLayersNames="__module.model.encoder.backbone.blocks.7.attn/aten::reshape/Reshape" outputLayouts="bfzyx" outputPrecisions="f16" primitiveType="undef" runtimePrecision="f16" />
			<input>
				<port id="0" precision="FP16">
					<dim>1</dim>
					<dim>2401</dim>
					<dim>3072</dim>
					<dim>1</dim>
				</port>
			</input>
			<output>
				<port id="1" precision="FP16">
					<dim>1</dim>
					<dim>2401</dim>
					<dim>1</dim>
					<dim>3072</dim>
					<dim>1</dim>
				</port>
			</output>
		</layer>
		<layer id="181" name="__module.model.encoder.backbone.blocks.7.attn/aten::reshape/Reshape" type="Reshape">
			<data execOrder="606" execTimeMcs="not_executed" originalLayersNames="__module.model.encoder.backbone.blocks.7.attn/aten::reshape/Reshape" outputLayouts="bfzyx" outputPrecisions="f16" primitiveType="undef" runtimePrecision="f16" />
			<input>
				<port id="0" precision="FP16">
					<dim>1</dim>
					<dim>2401</dim>
					<dim>1</dim>
					<dim>3072</dim>
					<dim>1</dim>
				</port>
			</input>
			<output>
				<port id="1" precision="FP16">
					<dim>1</dim>
					<dim>2401</dim>
					<dim>3</dim>
					<dim>16</dim>
					<dim>64</dim>
				</port>
			</output>
		</layer>
		<layer id="182" name="__module.model.encoder.backbone.blocks.7.attn/aten::permute/Transpose" type="Permute">
			<data execOrder="607" execTimeMcs="2409" originalLayersNames="__module.model.encoder.backbone.blocks.7.attn/aten::permute/Transpose" outputLayouts="bfzyx" outputPrecisions="f16" primitiveType="permute_ref__f16" runtimePrecision="f16" />
			<input>
				<port id="0" precision="FP16">
					<dim>1</dim>
					<dim>2401</dim>
					<dim>3</dim>
					<dim>16</dim>
					<dim>64</dim>
				</port>
			</input>
			<output>
				<port id="1" precision="FP16">
					<dim>3</dim>
					<dim>1</dim>
					<dim>16</dim>
					<dim>2401</dim>
					<dim>64</dim>
				</port>
				<port id="2" precision="FP16">
					<dim>3</dim>
					<dim>1</dim>
					<dim>16</dim>
					<dim>2401</dim>
					<dim>64</dim>
				</port>
				<port id="3" precision="FP16">
					<dim>3</dim>
					<dim>1</dim>
					<dim>16</dim>
					<dim>2401</dim>
					<dim>64</dim>
				</port>
			</output>
		</layer>
		<layer id="183" name="__module.model.encoder.backbone.blocks.7.attn/prim::ListUnpack/Split.out0" type="Crop">
			<data execOrder="614" execTimeMcs="not_executed" originalLayersNames="__module.model.encoder.backbone.blocks.7.attn/prim::ListUnpack/Split" outputLayouts="bfzyx" outputPrecisions="f16" primitiveType="undef" runtimePrecision="f16" />
			<input>
				<port id="0" precision="FP16">
					<dim>3</dim>
					<dim>1</dim>
					<dim>16</dim>
					<dim>2401</dim>
					<dim>64</dim>
				</port>
			</input>
			<output>
				<port id="1" precision="FP16">
					<dim>1</dim>
					<dim>1</dim>
					<dim>16</dim>
					<dim>2401</dim>
					<dim>64</dim>
				</port>
			</output>
		</layer>
		<layer id="184" name="__module.model.encoder.backbone.blocks.7.attn/prim::ListUnpack/Squeeze_reorder" type="Reorder">
			<data execOrder="615" execTimeMcs="142" originalLayersNames="__module.model.encoder.backbone.blocks.7.attn/prim::ListUnpack/Squeeze" outputLayouts="bfyx" outputPrecisions="f16" primitiveType="reorder_data_fast_b1__f16" runtimePrecision="f16" />
			<input>
				<port id="0" precision="FP16">
					<dim>1</dim>
					<dim>1</dim>
					<dim>16</dim>
					<dim>2401</dim>
					<dim>64</dim>
				</port>
			</input>
			<output>
				<port id="1" precision="FP16">
					<dim>1</dim>
					<dim>1</dim>
					<dim>38416</dim>
					<dim>64</dim>
				</port>
			</output>
		</layer>
		<layer id="185" name="__module.model.encoder.backbone.blocks.7.attn/prim::ListUnpack/Squeeze" type="Reshape">
			<data execOrder="616" execTimeMcs="not_executed" originalLayersNames="__module.model.encoder.backbone.blocks.7.attn/prim::ListUnpack/Squeeze" outputLayouts="bfyx" outputPrecisions="f16" primitiveType="undef" runtimePrecision="f16" />
			<input>
				<port id="0" precision="FP16">
					<dim>1</dim>
					<dim>1</dim>
					<dim>38416</dim>
					<dim>64</dim>
				</port>
			</input>
			<output>
				<port id="1" precision="FP16">
					<dim>1</dim>
					<dim>16</dim>
					<dim>2401</dim>
					<dim>64</dim>
				</port>
			</output>
		</layer>
		<layer id="186" name="__module.model.encoder.backbone.blocks.7.attn/prim::ListUnpack/Split.out1" type="Crop">
			<data execOrder="611" execTimeMcs="not_executed" originalLayersNames="__module.model.encoder.backbone.blocks.7.attn/prim::ListUnpack/Split" outputLayouts="bfzyx" outputPrecisions="f16" primitiveType="undef" runtimePrecision="f16" />
			<input>
				<port id="0" precision="FP16">
					<dim>3</dim>
					<dim>1</dim>
					<dim>16</dim>
					<dim>2401</dim>
					<dim>64</dim>
				</port>
			</input>
			<output>
				<port id="1" precision="FP16">
					<dim>1</dim>
					<dim>1</dim>
					<dim>16</dim>
					<dim>2401</dim>
					<dim>64</dim>
				</port>
			</output>
		</layer>
		<layer id="187" name="__module.model.encoder.backbone.blocks.7.attn/prim::ListUnpack/Squeeze_0_reorder" type="Reorder">
			<data execOrder="612" execTimeMcs="234" originalLayersNames="__module.model.encoder.backbone.blocks.7.attn/prim::ListUnpack/Squeeze_0" outputLayouts="bfyx" outputPrecisions="f16" primitiveType="reorder_data_fast_b1__f16" runtimePrecision="f16" />
			<input>
				<port id="0" precision="FP16">
					<dim>1</dim>
					<dim>1</dim>
					<dim>16</dim>
					<dim>2401</dim>
					<dim>64</dim>
				</port>
			</input>
			<output>
				<port id="1" precision="FP16">
					<dim>1</dim>
					<dim>1</dim>
					<dim>38416</dim>
					<dim>64</dim>
				</port>
			</output>
		</layer>
		<layer id="188" name="__module.model.encoder.backbone.blocks.7.attn/prim::ListUnpack/Squeeze_0" type="Reshape">
			<data execOrder="613" execTimeMcs="not_executed" originalLayersNames="__module.model.encoder.backbone.blocks.7.attn/prim::ListUnpack/Squeeze_0" outputLayouts="bfyx" outputPrecisions="f16" primitiveType="undef" runtimePrecision="f16" />
			<input>
				<port id="0" precision="FP16">
					<dim>1</dim>
					<dim>1</dim>
					<dim>38416</dim>
					<dim>64</dim>
				</port>
			</input>
			<output>
				<port id="1" precision="FP16">
					<dim>1</dim>
					<dim>16</dim>
					<dim>2401</dim>
					<dim>64</dim>
				</port>
			</output>
		</layer>
		<layer id="189" name="__module.model.encoder.backbone.blocks.7.attn/prim::ListUnpack/Split.out2" type="Crop">
			<data execOrder="608" execTimeMcs="not_executed" originalLayersNames="__module.model.encoder.backbone.blocks.7.attn/prim::ListUnpack/Split" outputLayouts="bfzyx" outputPrecisions="f16" primitiveType="undef" runtimePrecision="f16" />
			<input>
				<port id="0" precision="FP16">
					<dim>3</dim>
					<dim>1</dim>
					<dim>16</dim>
					<dim>2401</dim>
					<dim>64</dim>
				</port>
			</input>
			<output>
				<port id="1" precision="FP16">
					<dim>1</dim>
					<dim>1</dim>
					<dim>16</dim>
					<dim>2401</dim>
					<dim>64</dim>
				</port>
			</output>
		</layer>
		<layer id="190" name="__module.model.encoder.backbone.blocks.7.attn/prim::ListUnpack/Squeeze_1_reorder" type="Reorder">
			<data execOrder="609" execTimeMcs="304" originalLayersNames="__module.model.encoder.backbone.blocks.7.attn/prim::ListUnpack/Squeeze_1" outputLayouts="bfyx" outputPrecisions="f16" primitiveType="reorder_data_fast_b1__f16" runtimePrecision="f16" />
			<input>
				<port id="0" precision="FP16">
					<dim>1</dim>
					<dim>1</dim>
					<dim>16</dim>
					<dim>2401</dim>
					<dim>64</dim>
				</port>
			</input>
			<output>
				<port id="1" precision="FP16">
					<dim>1</dim>
					<dim>1</dim>
					<dim>38416</dim>
					<dim>64</dim>
				</port>
			</output>
		</layer>
		<layer id="191" name="__module.model.encoder.backbone.blocks.7.attn/prim::ListUnpack/Squeeze_1" type="Reshape">
			<data execOrder="610" execTimeMcs="not_executed" originalLayersNames="__module.model.encoder.backbone.blocks.7.attn/prim::ListUnpack/Squeeze_1" outputLayouts="bfyx" outputPrecisions="f16" primitiveType="undef" runtimePrecision="f16" />
			<input>
				<port id="0" precision="FP16">
					<dim>1</dim>
					<dim>1</dim>
					<dim>38416</dim>
					<dim>64</dim>
				</port>
			</input>
			<output>
				<port id="1" precision="FP16">
					<dim>1</dim>
					<dim>16</dim>
					<dim>2401</dim>
					<dim>64</dim>
				</port>
			</output>
		</layer>
		<layer id="192" name="__module.model.encoder.backbone.blocks.7.attn/aten::scaled_dot_product_attention/ScaledDotProductAttention" type="scaled_dot_product_attention">
			<data execOrder="617" execTimeMcs="12617" originalLayersNames="__module.model.encoder.backbone.blocks.7.attn/aten::scaled_dot_product_attention/ScaledDotProductAttention" outputLayouts="bfyx" outputPrecisions="f16" primitiveType="ocl::sdpa::opt__f16" runtimePrecision="f16" />
			<input>
				<port id="0" precision="FP16">
					<dim>1</dim>
					<dim>16</dim>
					<dim>2401</dim>
					<dim>64</dim>
				</port>
				<port id="1" precision="FP16">
					<dim>1</dim>
					<dim>16</dim>
					<dim>2401</dim>
					<dim>64</dim>
				</port>
				<port id="2" precision="FP16">
					<dim>1</dim>
					<dim>16</dim>
					<dim>2401</dim>
					<dim>64</dim>
				</port>
			</input>
			<output>
				<port id="3" precision="FP16">
					<dim>1</dim>
					<dim>16</dim>
					<dim>2401</dim>
					<dim>64</dim>
				</port>
			</output>
		</layer>
		<layer id="193" name="__module.model.encoder.backbone.blocks.7.attn/aten::permute/Transpose_1" type="Permute">
			<data execOrder="618" execTimeMcs="595" originalLayersNames="__module.model.encoder.backbone.blocks.7.attn/aten::permute/Transpose_1" outputLayouts="bfyx" outputPrecisions="f16" primitiveType="permute_ref__f16" runtimePrecision="f16" />
			<input>
				<port id="0" precision="FP16">
					<dim>1</dim>
					<dim>16</dim>
					<dim>2401</dim>
					<dim>64</dim>
				</port>
			</input>
			<output>
				<port id="1" precision="FP16">
					<dim>1</dim>
					<dim>2401</dim>
					<dim>16</dim>
					<dim>64</dim>
				</port>
			</output>
		</layer>
		<layer id="194" name="__module.model.encoder.backbone.blocks.7.attn/aten::reshape/Reshape_1" type="Reshape">
			<data execOrder="619" execTimeMcs="not_executed" originalLayersNames="__module.model.encoder.backbone.blocks.7.attn/aten::reshape/Reshape_1" outputLayouts="bfyx" outputPrecisions="f16" primitiveType="undef" runtimePrecision="f16" />
			<input>
				<port id="0" precision="FP16">
					<dim>1</dim>
					<dim>2401</dim>
					<dim>16</dim>
					<dim>64</dim>
				</port>
			</input>
			<output>
				<port id="1" precision="FP16">
					<dim>1</dim>
					<dim>2401</dim>
					<dim>1024</dim>
					<dim>1</dim>
				</port>
			</output>
		</layer>
		<layer id="195" name="Multiply_59686" type="FullyConnected">
			<data execOrder="620" execTimeMcs="442" originalLayersNames="Multiply_59686,__module.model.encoder.backbone.blocks.7.ls1/aten::mul/Multiply,__module.model.encoder.backbone.blocks.7/aten::add/Add" outputLayouts="bfyx" outputPrecisions="f16" primitiveType="jit:gemm:any__f16" runtimePrecision="f16" />
			<input>
				<port id="0" precision="FP16">
					<dim>1</dim>
					<dim>2401</dim>
					<dim>1024</dim>
					<dim>1</dim>
				</port>
				<port id="1" precision="FP16">
					<dim>1</dim>
					<dim>2401</dim>
					<dim>1024</dim>
					<dim>1</dim>
				</port>
			</input>
			<output>
				<port id="2" precision="FP16">
					<dim>1</dim>
					<dim>2401</dim>
					<dim>1024</dim>
					<dim>1</dim>
				</port>
				<port id="3" precision="FP16">
					<dim>1</dim>
					<dim>2401</dim>
					<dim>1024</dim>
					<dim>1</dim>
				</port>
			</output>
		</layer>
		<layer id="196" name="__module.model.encoder.backbone.blocks.7.norm2/aten::layer_norm/MVN" type="MVN">
			<data execOrder="621" execTimeMcs="100" originalLayersNames="__module.model.encoder.backbone.blocks.7.norm2/aten::layer_norm/MVN,__module.model.encoder.backbone.blocks.7.norm2/aten::layer_norm/Multiply_1,__module.model.encoder.backbone.blocks.7.norm2/aten::layer_norm/Add" outputLayouts="bfyx" outputPrecisions="f16" primitiveType="mvn_gpu_bfyx_opt__f16" runtimePrecision="f16" />
			<input>
				<port id="0" precision="FP16">
					<dim>1</dim>
					<dim>2401</dim>
					<dim>1024</dim>
					<dim>1</dim>
				</port>
			</input>
			<output>
				<port id="1" precision="FP16">
					<dim>1</dim>
					<dim>2401</dim>
					<dim>1024</dim>
					<dim>1</dim>
				</port>
			</output>
		</layer>
		<layer id="197" name="__module.model.encoder.backbone.blocks.7.mlp.fc1/aten::linear/MatMul" type="FullyConnected">
			<data execOrder="622" execTimeMcs="7196" originalLayersNames="__module.model.encoder.backbone.blocks.7.mlp.fc1/aten::linear/MatMul,__module.model.encoder.backbone.blocks.7.mlp.fc1/aten::linear/Add,__module.model.encoder.backbone.blocks.7.mlp.act/aten::gelu/Gelu" outputLayouts="bfyx" outputPrecisions="f16" primitiveType="jit:gemm:any__f16" runtimePrecision="f16" />
			<input>
				<port id="0" precision="FP16">
					<dim>1</dim>
					<dim>2401</dim>
					<dim>1024</dim>
					<dim>1</dim>
				</port>
			</input>
			<output>
				<port id="1" precision="FP16">
					<dim>1</dim>
					<dim>2401</dim>
					<dim>4096</dim>
					<dim>1</dim>
				</port>
			</output>
		</layer>
		<layer id="198" name="Multiply_59690" type="FullyConnected">
			<data execOrder="623" execTimeMcs="5310" originalLayersNames="Multiply_59690,__module.model.encoder.backbone.blocks.7.ls2/aten::mul/Multiply,__module.model.encoder.backbone.blocks.7/aten::add/Add_1" outputLayouts="bfyx" outputPrecisions="f16" primitiveType="jit:gemm:any__f16" runtimePrecision="f16" />
			<input>
				<port id="0" precision="FP16">
					<dim>1</dim>
					<dim>2401</dim>
					<dim>4096</dim>
					<dim>1</dim>
				</port>
				<port id="1" precision="FP16">
					<dim>1</dim>
					<dim>2401</dim>
					<dim>1024</dim>
					<dim>1</dim>
				</port>
			</input>
			<output>
				<port id="2" precision="FP16">
					<dim>1</dim>
					<dim>2401</dim>
					<dim>1024</dim>
					<dim>1</dim>
				</port>
				<port id="3" precision="FP16">
					<dim>1</dim>
					<dim>2401</dim>
					<dim>1024</dim>
					<dim>1</dim>
				</port>
			</output>
		</layer>
		<layer id="199" name="__module.model.encoder.backbone.blocks.8.norm1/aten::layer_norm/MVN" type="MVN">
			<data execOrder="624" execTimeMcs="1273" originalLayersNames="__module.model.encoder.backbone.blocks.8.norm1/aten::layer_norm/MVN,__module.model.encoder.backbone.blocks.8.norm1/aten::layer_norm/Multiply_1,__module.model.encoder.backbone.blocks.8.norm1/aten::layer_norm/Add" outputLayouts="bfyx" outputPrecisions="f16" primitiveType="mvn_gpu_bfyx_opt__f16" runtimePrecision="f16" />
			<input>
				<port id="0" precision="FP16">
					<dim>1</dim>
					<dim>2401</dim>
					<dim>1024</dim>
					<dim>1</dim>
				</port>
			</input>
			<output>
				<port id="1" precision="FP16">
					<dim>1</dim>
					<dim>2401</dim>
					<dim>1024</dim>
					<dim>1</dim>
				</port>
			</output>
		</layer>
		<layer id="200" name="__module.model.encoder.backbone.blocks.8.attn.qkv/aten::linear/MatMul" type="FullyConnected">
			<data execOrder="625" execTimeMcs="3891" originalLayersNames="__module.model.encoder.backbone.blocks.8.attn.qkv/aten::linear/MatMul,__module.model.encoder.backbone.blocks.8.attn.qkv/aten::linear/Add" outputLayouts="bfyx" outputPrecisions="f16" primitiveType="jit:gemm:any__f16" runtimePrecision="f16" />
			<input>
				<port id="0" precision="FP16">
					<dim>1</dim>
					<dim>2401</dim>
					<dim>1024</dim>
					<dim>1</dim>
				</port>
			</input>
			<output>
				<port id="1" precision="FP16">
					<dim>1</dim>
					<dim>2401</dim>
					<dim>3072</dim>
					<dim>1</dim>
				</port>
			</output>
		</layer>
		<layer id="201" name="__module.model.encoder.backbone.blocks.8.attn/aten::reshape/Reshape_reorder" type="Reorder">
			<data execOrder="626" execTimeMcs="not_executed" originalLayersNames="__module.model.encoder.backbone.blocks.8.attn/aten::reshape/Reshape" outputLayouts="bfzyx" outputPrecisions="f16" primitiveType="undef" runtimePrecision="f16" />
			<input>
				<port id="0" precision="FP16">
					<dim>1</dim>
					<dim>2401</dim>
					<dim>3072</dim>
					<dim>1</dim>
				</port>
			</input>
			<output>
				<port id="1" precision="FP16">
					<dim>1</dim>
					<dim>2401</dim>
					<dim>1</dim>
					<dim>3072</dim>
					<dim>1</dim>
				</port>
			</output>
		</layer>
		<layer id="202" name="__module.model.encoder.backbone.blocks.8.attn/aten::reshape/Reshape" type="Reshape">
			<data execOrder="627" execTimeMcs="not_executed" originalLayersNames="__module.model.encoder.backbone.blocks.8.attn/aten::reshape/Reshape" outputLayouts="bfzyx" outputPrecisions="f16" primitiveType="undef" runtimePrecision="f16" />
			<input>
				<port id="0" precision="FP16">
					<dim>1</dim>
					<dim>2401</dim>
					<dim>1</dim>
					<dim>3072</dim>
					<dim>1</dim>
				</port>
			</input>
			<output>
				<port id="1" precision="FP16">
					<dim>1</dim>
					<dim>2401</dim>
					<dim>3</dim>
					<dim>16</dim>
					<dim>64</dim>
				</port>
			</output>
		</layer>
		<layer id="203" name="__module.model.encoder.backbone.blocks.8.attn/aten::permute/Transpose" type="Permute">
			<data execOrder="628" execTimeMcs="2231" originalLayersNames="__module.model.encoder.backbone.blocks.8.attn/aten::permute/Transpose" outputLayouts="bfzyx" outputPrecisions="f16" primitiveType="permute_ref__f16" runtimePrecision="f16" />
			<input>
				<port id="0" precision="FP16">
…
		<edge from-layer="56" from-port="1" to-layer="57" to-port="0" />
		<edge from-layer="56" from-port="1" to-layer="60" to-port="0" />
		<edge from-layer="56" from-port="1" to-layer="63" to-port="0" />
		<edge from-layer="57" from-port="1" to-layer="58" to-port="0" />
		<edge from-layer="58" from-port="1" to-layer="59" to-port="0" />
		<edge from-layer="59" from-port="1" to-layer="66" to-port="0" />
		<edge from-layer="60" from-port="1" to-layer="61" to-port="0" />
		<edge from-layer="61" from-port="1" to-layer="62" to-port="0" />
		<edge from-layer="62" from-port="1" to-layer="66" to-port="1" />
		<edge from-layer="63" from-port="1" to-layer="64" to-port="0" />
		<edge from-layer="64" from-port="1" to-layer="65" to-port="0" />
		<edge from-layer="65" from-port="1" to-layer="66" to-port="2" />
		<edge from-layer="66" from-port="3" to-layer="67" to-port="0" />
		<edge from-layer="67" from-port="1" to-layer="68" to-port="0" />
		<edge from-layer="68" from-port="1" to-layer="69" to-port="0" />
		<edge from-layer="69" from-port="2" to-layer="70" to-port="0" />
		<edge from-layer="69" from-port="2" to-layer="72" to-port="1" />
		<edge from-layer="70" from-port="1" to-layer="71" to-port="0" />
		<edge from-layer="71" from-port="1" to-layer="72" to-port="0" />
		<edge from-layer="72" from-port="2" to-layer="73" to-port="0" />
		<edge from-layer="72" from-port="2" to-layer="90" to-port="1" />
		<edge from-layer="73" from-port="1" to-layer="74" to-port="0" />
		<edge from-layer="74" from-port="1" to-layer="75" to-port="0" />
		<edge from-layer="75" from-port="1" to-layer="76" to-port="0" />
		<edge from-layer="76" from-port="1" to-layer="77" to-port="0" />
		<edge from-layer="77" from-port="1" to-layer="81" to-port="0" />
		<edge from-layer="77" from-port="1" to-layer="84" to-port="0" />
		<edge from-layer="77" from-port="1" to-layer="78" to-port="0" />
		<edge from-layer="78" from-port="1" to-layer="79" to-port="0" />
		<edge from-layer="79" from-port="1" to-layer="80" to-port="0" />
		<edge from-layer="80" from-port="1" to-layer="87" to-port="0" />
		<edge from-layer="81" from-port="1" to-layer="82" to-port="0" />
		<edge from-layer="82" from-port="1" to-layer="83" to-port="0" />
		<edge from-layer="83" from-port="1" to-layer="87" to-port="1" />
		<edge from-layer="84" from-port="1" to-layer="85" to-port="0" />
		<edge from-layer="85" from-port="1" to-layer="86" to-port="0" />
		<edge from-layer="86" from-port="1" to-layer="87" to-port="2" />
		<edge from-layer="87" from-port="3" to-layer="88" to-port="0" />
		<edge from-layer="88" from-port="1" to-layer="89" to-port="0" />
		<edge from-layer="89" from-port="1" to-layer="90" to-port="0" />
		<edge from-layer="90" from-port="2" to-layer="91" to-port="0" />
		<edge from-layer="90" from-port="2" to-layer="93" to-port="1" />
		<edge from-layer="91" from-port="1" to-layer="92" to-port="0" />
		<edge from-layer="92" from-port="1" to-layer="93" to-port="0" />
		<edge from-layer="93" from-port="2" to-layer="94" to-port="0" />
		<edge from-layer="93" from-port="2" to-layer="111" to-port="1" />
		<edge from-layer="94" from-port="1" to-layer="95" to-port="0" />
		<edge from-layer="95" from-port="1" to-layer="96" to-port="0" />
		<edge from-layer="96" from-port="1" to-layer="97" to-port="0" />
		<edge from-layer="97" from-port="1" to-layer="98" to-port="0" />
		<edge from-layer="98" from-port="1" to-layer="99" to-port="0" />
		<edge from-layer="98" from-port="1" to-layer="102" to-port="0" />
		<edge from-layer="98" from-port="1" to-layer="105" to-port="0" />
		<edge from-layer="99" from-port="1" to-layer="100" to-port="0" />
		<edge from-layer="100" from-port="1" to-layer="101" to-port="0" />
		<edge from-layer="101" from-port="1" to-layer="108" to-port="0" />
		<edge from-layer="102" from-port="1" to-layer="103" to-port="0" />
		<edge from-layer="103" from-port="1" to-layer="104" to-port="0" />
		<edge from-layer="104" from-port="1" to-layer="108" to-port="1" />
		<edge from-layer="105" from-port="1" to-layer="106" to-port="0" />
		<edge from-layer="106" from-port="1" to-layer="107" to-port="0" />
		<edge from-layer="107" from-port="1" to-layer="108" to-port="2" />
		<edge from-layer="108" from-port="3" to-layer="109" to-port="0" />
		<edge from-layer="109" from-port="1" to-layer="110" to-port="0" />
		<edge from-layer="110" from-port="1" to-layer="111" to-port="0" />
		<edge from-layer="111" from-port="2" to-layer="112" to-port="0" />
		<edge from-layer="111" from-port="2" to-layer="114" to-port="1" />
		<edge from-layer="112" from-port="1" to-layer="113" to-port="0" />
		<edge from-layer="113" from-port="1" to-layer="114" to-port="0" />
		<edge from-layer="114" from-port="2" to-layer="115" to-port="0" />
		<edge from-layer="114" from-port="2" to-layer="132" to-port="1" />
		<edge from-layer="115" from-port="1" to-layer="116" to-port="0" />
		<edge from-layer="116" from-port="1" to-layer="117" to-port="0" />
		<edge from-layer="117" from-port="1" to-layer="118" to-port="0" />
		<edge from-layer="118" from-port="1" to-layer="119" to-port="0" />
		<edge from-layer="119" from-port="1" to-layer="120" to-port="0" />
		<edge from-layer="119" from-port="1" to-layer="126" to-port="0" />
		<edge from-layer="119" from-port="1" to-layer="123" to-port="0" />
		<edge from-layer="120" from-port="1" to-layer="121" to-port="0" />
		<edge from-layer="121" from-port="1" to-layer="122" to-port="0" />
		<edge from-layer="122" from-port="1" to-layer="129" to-port="0" />
		<edge from-layer="123" from-port="1" to-layer="124" to-port="0" />
		<edge from-layer="124" from-port="1" to-layer="125" to-port="0" />
		<edge from-layer="125" from-port="1" to-layer="129" to-port="1" />
		<edge from-layer="126" from-port="1" to-layer="127" to-port="0" />
		<edge from-layer="127" from-port="1" to-layer="128" to-port="0" />
		<edge from-layer="128" from-port="1" to-layer="129" to-port="2" />
		<edge from-layer="129" from-port="3" to-layer="130" to-port="0" />
		<edge from-layer="130" from-port="1" to-layer="131" to-port="0" />
		<edge from-layer="131" from-port="1" to-layer="132" to-port="0" />
		<edge from-layer="132" from-port="2" to-layer="133" to-port="0" />
		<edge from-layer="132" from-port="2" to-layer="135" to-port="1" />
		<edge from-layer="133" from-port="1" to-layer="134" to-port="0" />
		<edge from-layer="134" from-port="1" to-layer="135" to-port="0" />
		<edge from-layer="135" from-port="2" to-layer="136" to-port="0" />
		<edge from-layer="135" from-port="2" to-layer="153" to-port="1" />
		<edge from-layer="136" from-port="1" to-layer="137" to-port="0" />
		<edge from-layer="137" from-port="1" to-layer="138" to-port="0" />
		<edge from-layer="138" from-port="1" to-layer="139" to-port="0" />
		<edge from-layer="139" from-port="1" to-layer="140" to-port="0" />
		<edge from-layer="140" from-port="1" to-layer="141" to-port="0" />
		<edge from-layer="140" from-port="1" to-layer="144" to-port="0" />
		<edge from-layer="140" from-port="1" to-layer="147" to-port="0" />
		<edge from-layer="141" from-port="1" to-layer="142" to-port="0" />
		<edge from-layer="142" from-port="1" to-layer="143" to-port="0" />
		<edge from-layer="143" from-port="1" to-layer="150" to-port="0" />
		<edge from-layer="144" from-port="1" to-layer="145" to-port="0" />
		<edge from-layer="145" from-port="1" to-layer="146" to-port="0" />
		<edge from-layer="146" from-port="1" to-layer="150" to-port="1" />
		<edge from-layer="147" from-port="1" to-layer="148" to-port="0" />
		<edge from-layer="148" from-port="1" to-layer="149" to-port="0" />
		<edge from-layer="149" from-port="1" to-layer="150" to-port="2" />
		<edge from-layer="150" from-port="3" to-layer="151" to-port="0" />
		<edge from-layer="151" from-port="1" to-layer="152" to-port="0" />
		<edge from-layer="152" from-port="1" to-layer="153" to-port="0" />
		<edge from-layer="153" from-port="2" to-layer="154" to-port="0" />
		<edge from-layer="153" from-port="2" to-layer="156" to-port="1" />
		<edge from-layer="154" from-port="1" to-layer="155" to-port="0" />
		<edge from-layer="155" from-port="1" to-layer="156" to-port="0" />
		<edge from-layer="156" from-port="2" to-layer="157" to-port="0" />
		<edge from-layer="156" from-port="2" to-layer="174" to-port="1" />
		<edge from-layer="157" from-port="1" to-layer="158" to-port="0" />
		<edge from-layer="158" from-port="1" to-layer="159" to-port="0" />
		<edge from-layer="159" from-port="1" to-layer="160" to-port="0" />
		<edge from-layer="160" from-port="1" to-layer="161" to-port="0" />
		<edge from-layer="161" from-port="1" to-layer="162" to-port="0" />
		<edge from-layer="161" from-port="1" to-layer="165" to-port="0" />
		<edge from-layer="161" from-port="1" to-layer="168" to-port="0" />
		<edge from-layer="162" from-port="1" to-layer="163" to-port="0" />
		<edge from-layer="163" from-port="1" to-layer="164" to-port="0" />
		<edge from-layer="164" from-port="1" to-layer="171" to-port="0" />
		<edge from-layer="165" from-port="1" to-layer="166" to-port="0" />
		<edge from-layer="166" from-port="1" to-layer="167" to-port="0" />
		<edge from-layer="167" from-port="1" to-layer="171" to-port="1" />
		<edge from-layer="168" from-port="1" to-layer="169" to-port="0" />
		<edge from-layer="169" from-port="1" to-layer="170" to-port="0" />
		<edge from-layer="170" from-port="1" to-layer="171" to-port="2" />
		<edge from-layer="171" from-port="3" to-layer="172" to-port="0" />
		<edge from-layer="172" from-port="1" to-layer="173" to-port="0" />
		<edge from-layer="173" from-port="1" to-layer="174" to-port="0" />
		<edge from-layer="174" from-port="2" to-layer="175" to-port="0" />
		<edge from-layer="174" from-port="2" to-layer="177" to-port="1" />
		<edge from-layer="175" from-port="1" to-layer="176" to-port="0" />
		<edge from-layer="176" from-port="1" to-layer="177" to-port="0" />
		<edge from-layer="177" from-port="2" to-layer="178" to-port="0" />
		<edge from-layer="177" from-port="2" to-layer="195" to-port="1" />
		<edge from-layer="178" from-port="1" to-layer="179" to-port="0" />
		<edge from-layer="179" from-port="1" to-layer="180" to-port="0" />
		<edge from-layer="180" from-port="1" to-layer="181" to-port="0" />
		<edge from-layer="181" from-port="1" to-layer="182" to-port="0" />
		<edge from-layer="182" from-port="1" to-layer="183" to-port="0" />
		<edge from-layer="182" from-port="1" to-layer="186" to-port="0" />
		<edge from-layer="182" from-port="1" to-layer="189" to-port="0" />
		<edge from-layer="183" from-port="1" to-layer="184" to-port="0" />
		<edge from-layer="184" from-port="1" to-layer="185" to-port="0" />
		<edge from-layer="185" from-port="1" to-layer="192" to-port="0" />
		<edge from-layer="186" from-port="1" to-layer="187" to-port="0" />
		<edge from-layer="187" from-port="1" to-layer="188" to-port="0" />
		<edge from-layer="188" from-port="1" to-layer="192" to-port="1" />
		<edge from-layer="189" from-port="1" to-layer="190" to-port="0" />
		<edge from-layer="190" from-port="1" to-layer="191" to-port="0" />
		<edge from-layer="191" from-port="1" to-layer="192" to-port="2" />
		<edge from-layer="192" from-port="3" to-layer="193" to-port="0" />
		<edge from-layer="193" from-port="1" to-layer="194" to-port="0" />
		<edge from-layer="194" from-port="1" to-layer="195" to-port="0" />
		<edge from-layer="195" from-port="2" to-layer="196" to-port="0" />
		<edge from-layer="195" from-port="2" to-layer="198" to-port="1" />
		<edge from-layer="196" from-port="1" to-layer="197" to-port="0" />
		<edge from-layer="197" from-port="1" to-layer="198" to-port="0" />
		<edge from-layer="198" from-port="2" to-layer="199" to-port="0" />
		<edge from-layer="198" from-port="2" to-layer="216" to-port="1" />
		<edge from-layer="199" from-port="1" to-layer="200" to-port="0" />
		<edge from-layer="200" from-port="1" to-layer="201" to-port="0" />
		<edge from-layer="201" from-port="1" to-layer="202" to-port="0" />
		<edge from-layer="202" from-port="1" to-layer="203" to-port="0" />
		<edge from-layer="203" from-port="1" to-layer="204" to-port="0" />
		<edge from-layer="203" from-port="1" to-layer="207" to-port="0" />
		<edge from-layer="203" from-port="1" to-layer="210" to-port="0" />
		<edge from-layer="204" from-port="1" to-layer="205" to-port="0" />
		<edge from-layer="205" from-port="1" to-layer="206" to-port="0" />
		<edge from-layer="206" from-port="1" to-layer="213" to-port="0" />
		<edge from-layer="207" from-port="1" to-layer="208" to-port="0" />
		<edge from-layer="208" from-port="1" to-layer="209" to-port="0" />
		<edge from-layer="209" from-port="1" to-layer="213" to-port="1" />
		<edge from-layer="210" from-port="1" to-layer="211" to-port="0" />
		<edge from-layer="211" from-port="1" to-layer="212" to-port="0" />
		<edge from-layer="212" from-port="1" to-layer="213" to-port="2" />
		<edge from-layer="213" from-port="3" to-layer="214" to-port="0" />
		<edge from-layer="214" from-port="1" to-layer="215" to-port="0" />
		<edge from-layer="215" from-port="1" to-layer="216" to-port="0" />
		<edge from-layer="216" from-port="2" to-layer="217" to-port="0" />
		<edge from-layer="216" from-port="2" to-layer="219" to-port="1" />
		<edge from-layer="217" from-port="1" to-layer="218" to-port="0" />
		<edge from-layer="218" from-port="1" to-layer="219" to-port="0" />
		<edge from-layer="219" from-port="2" to-layer="220" to-port="0" />
		<edge from-layer="219" from-port="2" to-layer="237" to-port="1" />
		<edge from-layer="220" from-port="1" to-layer="221" to-port="0" />
		<edge from-layer="221" from-port="1" to-layer="222" to-port="0" />
		<edge from-layer="222" from-port="1" to-layer="223" to-port="0" />
		<edge from-layer="223" from-port="1" to-layer="224" to-port="0" />
		<edge from-layer="224" from-port="1" to-layer="225" to-port="0" />
		<edge from-layer="224" from-port="1" to-layer="228" to-port="0" />
		<edge from-layer="224" from-port="1" to-layer="231" to-port="0" />
		<edge from-layer="225" from-port="1" to-layer="226" to-port="0" />
		<edge from-layer="226" from-port="1" to-layer="227" to-port="0" />
		<edge from-layer="227" from-port="1" to-layer="234" to-port="0" />
		<edge from-layer="228" from-port="1" to-layer="229" to-port="0" />
		<edge from-layer="229" from-port="1" to-layer="230" to-port="0" />
		<edge from-layer="230" from-port="1" to-layer="234" to-port="1" />
		<edge from-layer="231" from-port="1" to-layer="232" to-port="0" />
		<edge from-layer="232" from-port="1" to-layer="233" to-port="0" />
		<edge from-layer="233" from-port="1" to-layer="234" to-port="2" />
		<edge from-layer="234" from-port="3" to-layer="235" to-port="0" />
		<edge from-layer="235" from-port="1" to-layer="236" to-port="0" />
		<edge from-layer="236" from-port="1" to-layer="237" to-port="0" />
		<edge from-layer="237" from-port="2" to-layer="238" to-port="0" />
		<edge from-layer="237" from-port="2" to-layer="240" to-port="1" />
		<edge from-layer="238" from-port="1" to-layer="239" to-port="0" />
		<edge from-layer="239" from-port="1" to-layer="240" to-port="0" />
		<edge from-layer="240" from-port="2" to-layer="241" to-port="0" />
		<edge from-layer="240" from-port="2" to-layer="258" to-port="1" />
		<edge from-layer="241" from-port="1" to-layer="242" to-port="0" />
		<edge from-layer="242" from-port="1" to-layer="243" to-port="0" />
		<edge from-layer="243" from-port="1" to-layer="244" to-port="0" />
		<edge from-layer="244" from-port="1" to-layer="245" to-port="0" />
		<edge from-layer="245" from-port="1" to-layer="246" to-port="0" />
		<edge from-layer="245" from-port="1" to-layer="249" to-port="0" />
		<edge from-layer="245" from-port="1" to-layer="252" to-port="0" />
		<edge from-layer="246" from-port="1" to-layer="247" to-port="0" />
		<edge from-layer="247" from-port="1" to-layer="248" to-port="0" />
		<edge from-layer="248" from-port="1" to-layer="255" to-port="0" />
		<edge from-layer="249" from-port="1" to-layer="250" to-port="0" />
		<edge from-layer="250" from-port="1" to-layer="251" to-port="0" />
		<edge from-layer="251" from-port="1" to-layer="255" to-port="1" />
		<edge from-layer="252" from-port="1" to-layer="253" to-port="0" />
		<edge from-layer="253" from-port="1" to-layer="254" to-port="0" />
		<edge from-layer="254" from-port="1" to-layer="255" to-port="2" />
		<edge from-layer="255" from-port="3" to-layer="256" to-port="0" />
		<edge from-layer="256" from-port="1" to-layer="257" to-port="0" />
		<edge from-layer="257" from-port="1" to-layer="258" to-port="0" />
		<edge from-layer="258" from-port="2" to-layer="259" to-port="0" />
		<edge from-layer="258" from-port="2" to-layer="261" to-port="1" />
		<edge from-layer="259" from-port="1" to-layer="260" to-port="0" />
		<edge from-layer="260" from-port="1" to-layer="261" to-port="0" />
		<edge from-layer="261" from-port="2" to-layer="262" to-port="0" />
		<edge from-layer="261" from-port="2" to-layer="279" to-port="1" />
		<edge from-layer="262" from-port="1" to-layer="263" to-port="0" />
		<edge from-layer="263" from-port="1" to-layer="264" to-port="0" />
		<edge from-layer="264" from-port="1" to-layer="265" to-port="0" />
		<edge from-layer="265" from-port="1" to-layer="266" to-port="0" />
		<edge from-layer="266" from-port="1" to-layer="267" to-port="0" />
		<edge from-layer="266" from-port="1" to-layer="270" to-port="0" />
		<edge from-layer="266" from-port="1" to-layer="273" to-port="0" />
		<edge from-layer="267" from-port="1" to-layer="268" to-port="0" />
		<edge from-layer="268" from-port="1" to-layer="269" to-port="0" />
		<edge from-layer="269" from-port="1" to-layer="276" to-port="0" />
		<edge from-layer="270" from-port="1" to-layer="271" to-port="0" />
		<edge from-layer="271" from-port="1" to-layer="272" to-port="0" />
		<edge from-layer="272" from-port="1" to-layer="276" to-port="1" />
		<edge from-layer="273" from-port="1" to-layer="274" to-port="0" />
		<edge from-layer="274" from-port="1" to-layer="275" to-port="0" />
		<edge from-layer="275" from-port="1" to-layer="276" to-port="2" />
		<edge from-layer="276" from-port="3" to-layer="277" to-port="0" />
		<edge from-layer="277" from-port="1" to-layer="278" to-port="0" />
		<edge from-layer="278" from-port="1" to-layer="279" to-port="0" />
		<edge from-layer="279" from-port="2" to-layer="280" to-port="0" />
		<edge from-layer="279" from-port="2" to-layer="282" to-port="1" />
		<edge from-layer="280" from-port="1" to-layer="281" to-port="0" />
		<edge from-layer="281" from-port="1" to-layer="282" to-port="0" />
		<edge from-layer="282" from-port="2" to-layer="283" to-port="0" />
		<edge from-layer="282" from-port="2" to-layer="300" to-port="1" />
		<edge from-layer="283" from-port="1" to-layer="284" to-port="0" />
		<edge from-layer="284" from-port="1" to-layer="285" to-port="0" />
		<edge from-layer="285" from-port="1" to-layer="286" to-port="0" />
		<edge from-layer="286" from-port="1" to-layer="287" to-port="0" />
		<edge from-layer="287" from-port="1" to-layer="288" to-port="0" />
		<edge from-layer="287" from-port="1" to-layer="291" to-port="0" />
		<edge from-layer="287" from-port="1" to-layer="294" to-port="0" />
		<edge from-layer="288" from-port="1" to-layer="289" to-port="0" />
		<edge from-layer="289" from-port="1" to-layer="290" to-port="0" />
		<edge from-layer="290" from-port="1" to-layer="297" to-port="0" />
		<edge from-layer="291" from-port="1" to-layer="292" to-port="0" />
		<edge from-layer="292" from-port="1" to-layer="293" to-port="0" />
		<edge from-layer="293" from-port="1" to-layer="297" to-port="1" />
		<edge from-layer="294" from-port="1" to-layer="295" to-port="0" />
		<edge from-layer="295" from-port="1" to-layer="296" to-port="0" />
		<edge from-layer="296" from-port="1" to-layer="297" to-port="2" />
		<edge from-layer="297" from-port="3" to-layer="298" to-port="0" />
		<edge from-layer="298" from-port="1" to-layer="299" to-port="0" />
		<edge from-layer="299" from-port="1" to-layer="300" to-port="0" />
		<edge from-layer="300" from-port="2" to-layer="301" to-port="0" />
		<edge from-layer="300" from-port="2" to-layer="303" to-port="1" />
		<edge from-layer="301" from-port="1" to-layer="302" to-port="0" />
		<edge from-layer="302" from-port="1" to-layer="303" to-port="0" />
		<edge from-layer="303" from-port="2" to-layer="304" to-port="0" />
		<edge from-layer="303" from-port="2" to-layer="321" to-port="1" />
		<edge from-layer="304" from-port="1" to-layer="305" to-port="0" />
		<edge from-layer="305" from-port="1" to-layer="306" to-port="0" />
		<edge from-layer="306" from-port="1" to-layer="307" to-port="0" />
		<edge from-layer="307" from-port="1" to-layer="308" to-port="0" />
		<edge from-layer="308" from-port="1" to-layer="309" to-port="0" />
		<edge from-layer="308" from-port="1" to-layer="312" to-port="0" />
		<edge from-layer="308" from-port="1" to-layer="315" to-port="0" />
		<edge from-layer="309" from-port="1" to-layer="310" to-port="0" />
		<edge from-layer="310" from-port="1" to-layer="311" to-port="0" />
		<edge from-layer="311" from-port="1" to-layer="318" to-port="0" />
		<edge from-layer="312" from-port="1" to-layer="313" to-port="0" />
		<edge from-layer="313" from-port="1" to-layer="314" to-port="0" />
		<edge from-layer="314" from-port="1" to-layer="318" to-port="1" />
		<edge from-layer="315" from-port="1" to-layer="316" to-port="0" />
		<edge from-layer="316" from-port="1" to-layer="317" to-port="0" />
		<edge from-layer="317" from-port="1" to-layer="318" to-port="2" />
		<edge from-layer="318" from-port="3" to-layer="319" to-port="0" />
		<edge from-layer="319" from-port="1" to-layer="320" to-port="0" />
		<edge from-layer="320" from-port="1" to-layer="321" to-port="0" />
		<edge from-layer="321" from-port="2" to-layer="322" to-port="0" />
		<edge from-layer="321" from-port="2" to-layer="324" to-port="1" />
		<edge from-layer="322" from-port="1" to-layer="323" to-port="0" />
		<edge from-layer="323" from-port="1" to-layer="324" to-port="0" />
		<edge from-layer="324" from-port="2" to-layer="325" to-port="0" />
		<edge from-layer="324" from-port="2" to-layer="342" to-port="1" />
		<edge from-layer="325" from-port="1" to-layer="326" to-port="0" />
		<edge from-layer="326" from-port="1" to-layer="327" to-port="0" />
		<edge from-layer="327" from-port="1" to-layer="328" to-port="0" />
		<edge from-layer="328" from-port="1" to-layer="329" to-port="0" />
		<edge from-layer="329" from-port="1" to-layer="330" to-port="0" />
		<edge from-layer="329" from-port="1" to-layer="333" to-port="0" />
		<edge from-layer="329" from-port="1" to-layer="336" to-port="0" />
		<edge from-layer="330" from-port="1" to-layer="331" to-port="0" />
		<edge from-layer="331" from-port="1" to-layer="332" to-port="0" />
		<edge from-layer="332" from-port="1" to-layer="339" to-port="0" />
		<edge from-layer="333" from-port="1" to-layer="334" to-port="0" />
		<edge from-layer="334" from-port="1" to-layer="335" to-port="0" />
		<edge from-layer="335" from-port="1" to-layer="339" to-port="1" />
		<edge from-layer="336" from-port="1" to-layer="337" to-port="0" />
		<edge from-layer="337" from-port="1" to-layer="338" to-port="0" />
		<edge from-layer="338" from-port="1" to-layer="339" to-port="2" />
		<edge from-layer="339" from-port="3" to-layer="340" to-port="0" />
		<edge from-layer="340" from-port="1" to-layer="341" to-port="0" />
		<edge from-layer="341" from-port="1" to-layer="342" to-port="0" />
		<edge from-layer="342" from-port="2" to-layer="343" to-port="0" />
		<edge from-layer="342" from-port="2" to-layer="345" to-port="1" />
		<edge from-layer="343" from-port="1" to-layer="344" to-port="0" />
		<edge from-layer="344" from-port="1" to-layer="345" to-port="0" />
		<edge from-layer="345" from-port="2" to-layer="346" to-port="0" />
		<edge from-layer="345" from-port="2" to-layer="363" to-port="1" />
		<edge from-layer="346" from-port="1" to-layer="347" to-port="0" />
		<edge from-layer="347" from-port="1" to-layer="348" to-port="0" />
		<edge from-layer="348" from-port="1" to-layer="349" to-port="0" />
		<edge from-layer="349" from-port="1" to-layer="350" to-port="0" />
		<edge from-layer="350" from-port="1" to-layer="351" to-port="0" />
		<edge from-layer="350" from-port="1" to-layer="354" to-port="0" />
		<edge from-layer="350" from-port="1" to-layer="357" to-port="0" />
		<edge from-layer="351" from-port="1" to-layer="352" to-port="0" />
		<edge from-layer="352" from-port="1" to-layer="353" to-port="0" />
		<edge from-layer="353" from-port="1" to-layer="360" to-port="0" />
		<edge from-layer="354" from-port="1" to-layer="355" to-port="0" />
		<edge from-layer="355" from-port="1" to-layer="356" to-port="0" />
		<edge from-layer="356" from-port="1" to-layer="360" to-port="1" />
		<edge from-layer="357" from-port="1" to-layer="358" to-port="0" />
		<edge from-layer="358" from-port="1" to-layer="359" to-port="0" />
		<edge from-layer="359" from-port="1" to-layer="360" to-port="2" />
		<edge from-layer="360" from-port="3" to-layer="361" to-port="0" />
		<edge from-layer="361" from-port="1" to-layer="362" to-port="0" />
		<edge from-layer="362" from-port="1" to-layer="363" to-port="0" />
		<edge from-layer="363" from-port="2" to-layer="364" to-port="0" />
		<edge from-layer="363" from-port="2" to-layer="366" to-port="1" />
		<edge from-layer="364" from-port="1" to-layer="365" to-port="0" />
		<edge from-layer="365" from-port="1" to-layer="366" to-port="0" />
		<edge from-layer="366" from-port="2" to-layer="367" to-port="0" />
		<edge from-layer="366" from-port="2" to-layer="384" to-port="1" />
		<edge from-layer="367" from-port="1" to-layer="368" to-port="0" />
		<edge from-layer="368" from-port="1" to-layer="369" to-port="0" />
		<edge from-layer="369" from-port="1" to-layer="370" to-port="0" />
		<edge from-layer="370" from-port="1" to-layer="371" to-port="0" />
		<edge from-layer="371" from-port="1" to-layer="375" to-port="0" />
		<edge from-layer="371" from-port="1" to-layer="378" to-port="0" />
		<edge from-layer="371" from-port="1" to-layer="372" to-port="0" />
		<edge from-layer="372" from-port="1" to-layer="373" to-port="0" />
		<edge from-layer="373" from-port="1" to-layer="374" to-port="0" />
		<edge from-layer="374" from-port="1" to-layer="381" to-port="0" />
		<edge from-layer="375" from-port="1" to-layer="376" to-port="0" />
		<edge from-layer="376" from-port="1" to-layer="377" to-port="0" />
		<edge from-layer="377" from-port="1" to-layer="381" to-port="1" />
		<edge from-layer="378" from-port="1" to-layer="379" to-port="0" />
		<edge from-layer="379" from-port="1" to-layer="380" to-port="0" />
		<edge from-layer="380" from-port="1" to-layer="381" to-port="2" />
		<edge from-layer="381" from-port="3" to-layer="382" to-port="0" />
		<edge from-layer="382" from-port="1" to-layer="383" to-port="0" />
		<edge from-layer="383" from-port="1" to-layer="384" to-port="0" />
		<edge from-layer="384" from-port="2" to-layer="385" to-port="0" />
		<edge from-layer="384" from-port="2" to-layer="387" to-port="1" />
		<edge from-layer="385" from-port="1" to-layer="386" to-port="0" />
		<edge from-layer="386" from-port="1" to-layer="387" to-port="0" />
		<edge from-layer="387" from-port="2" to-layer="388" to-port="0" />
		<edge from-layer="387" from-port="2" to-layer="405" to-port="1" />
		<edge from-layer="388" from-port="1" to-layer="389" to-port="0" />
		<edge from-layer="389" from-port="1" to-layer="390" to-port="0" />
		<edge from-layer="390" from-port="1" to-layer="391" to-port="0" />
		<edge from-layer="391" from-port="1" to-layer="392" to-port="0" />
		<edge from-layer="392" from-port="1" to-layer="393" to-port="0" />
		<edge from-layer="392" from-port="1" to-layer="399" to-port="0" />
		<edge from-layer="392" from-port="1" to-layer="396" to-port="0" />
		<edge from-layer="393" from-port="1" to-layer="394" to-port="0" />
		<edge from-layer="394" from-port="1" to-layer="395" to-port="0" />
		<edge from-layer="395" from-port="1" to-layer="402" to-port="0" />
		<edge from-layer="396" from-port="1" to-layer="397" to-port="0" />
		<edge from-layer="397" from-port="1" to-layer="398" to-port="0" />
		<edge from-layer="398" from-port="1" to-layer="402" to-port="1" />
		<edge from-layer="399" from-port="1" to-layer="400" to-port="0" />
		<edge from-layer="400" from-port="1" to-layer="401" to-port="0" />
		<edge from-layer="401" from-port="1" to-layer="402" to-port="2" />
		<edge from-layer="402" from-port="3" to-layer="403" to-port="0" />
		<edge from-layer="403" from-port="1" to-layer="404" to-port="0" />
		<edge from-layer="404" from-port="1" to-layer="405" to-port="0" />
		<edge from-layer="405" from-port="2" to-layer="406" to-port="0" />
		<edge from-layer="405" from-port="2" to-layer="408" to-port="1" />
		<edge from-layer="406" from-port="1" to-layer="407" to-port="0" />
		<edge from-layer="407" from-port="1" to-layer="408" to-port="0" />
		<edge from-layer="408" from-port="2" to-layer="409" to-port="0" />
		<edge from-layer="408" from-port="2" to-layer="426" to-port="1" />
		<edge from-layer="409" from-port="1" to-layer="410" to-port="0" />
		<edge from-layer="410" from-port="1" to-layer="411" to-port="0" />
		<edge from-layer="411" from-port="1" to-layer="412" to-port="0" />
		<edge from-layer="412" from-port="1" to-layer="413" to-port="0" />
		<edge from-layer="413" from-port="1" to-layer="414" to-port="0" />
		<edge from-layer="413" from-port="1" to-layer="417" to-port="0" />
		<edge from-layer="413" from-port="1" to-layer="420" to-port="0" />
		<edge from-layer="414" from-port="1" to-layer="415" to-port="0" />
		<edge from-layer="415" from-port="1" to-layer="416" to-port="0" />
		<edge from-layer="416" from-port="1" to-layer="423" to-port="0" />
		<edge from-layer="417" from-port="1" to-layer="418" to-port="0" />
		<edge from-layer="418" from-port="1" to-layer="419" to-port="0" />
		<edge from-layer="419" from-port="1" to-layer="423" to-port="1" />
		<edge from-layer="420" from-port="1" to-layer="421" to-port="0" />
		<edge from-layer="421" from-port="1" to-layer="422" to-port="0" />
		<edge from-layer="422" from-port="1" to-layer="423" to-port="2" />
		<edge from-layer="423" from-port="3" to-layer="424" to-port="0" />
		<edge from-layer="424" from-port="1" to-layer="425" to-port="0" />
		<edge from-layer="425" from-port="1" to-layer="426" to-port="0" />
		<edge from-layer="426" from-port="2" to-layer="427" to-port="0" />
		<edge from-layer="426" from-port="2" to-layer="429" to-port="1" />
		<edge from-layer="427" from-port="1" to-layer="428" to-port="0" />
		<edge from-layer="428" from-port="1" to-layer="429" to-port="0" />
		<edge from-layer="429" from-port="2" to-layer="430" to-port="0" />
		<edge from-layer="429" from-port="2" to-layer="447" to-port="1" />
		<edge from-layer="430" from-port="1" to-layer="431" to-port="0" />
		<edge from-layer="431" from-port="1" to-layer="432" to-port="0" />
		<edge from-layer="432" from-port="1" to-layer="433" to-port="0" />
		<edge from-layer="433" from-port="1" to-layer="434" to-port="0" />
		<edge from-layer="434" from-port="1" to-layer="435" to-port="0" />
		<edge from-layer="434" from-port="1" to-layer="441" to-port="0" />
		<edge from-layer="434" from-port="1" to-layer="438" to-port="0" />
		<edge from-layer="435" from-port="1" to-layer="436" to-port="0" />
		<edge from-layer="436" from-port="1" to-layer="437" to-port="0" />
		<edge from-layer="437" from-port="1" to-layer="444" to-port="0" />
		<edge from-layer="438" from-port="1" to-layer="439" to-port="0" />
		<edge from-layer="439" from-port="1" to-layer="440" to-port="0" />
		<edge from-layer="440" from-port="1" to-layer="444" to-port="1" />
		<edge from-layer="441" from-port="1" to-layer="442" to-port="0" />
		<edge from-layer="442" from-port="1" to-layer="443" to-port="0" />
		<edge from-layer="443" from-port="1" to-layer="444" to-port="2" />
		<edge from-layer="444" from-port="3" to-layer="445" to-port="0" />
		<edge from-layer="445" from-port="1" to-layer="446" to-port="0" />
		<edge from-layer="446" from-port="1" to-layer="447" to-port="0" />
		<edge from-layer="447" from-port="2" to-layer="448" to-port="0" />
		<edge from-layer="447" from-port="2" to-layer="450" to-port="1" />
		<edge from-layer="448" from-port="1" to-layer="449" to-port="0" />
		<edge from-layer="449" from-port="1" to-layer="450" to-port="0" />
		<edge from-layer="450" from-port="2" to-layer="451" to-port="0" />
		<edge from-layer="450" from-port="2" to-layer="468" to-port="1" />
		<edge from-layer="451" from-port="1" to-layer="452" to-port="0" />
		<edge from-layer="452" from-port="1" to-layer="453" to-port="0" />
		<edge from-layer="453" from-port="1" to-layer="454" to-port="0" />
		<edge from-layer="454" from-port="1" to-layer="455" to-port="0" />
		<edge from-layer="455" from-port="1" to-layer="456" to-port="0" />
		<edge from-layer="455" from-port="1" to-layer="462" to-port="0" />
		<edge from-layer="455" from-port="1" to-layer="459" to-port="0" />
		<edge from-layer="456" from-port="1" to-layer="457" to-port="0" />
		<edge from-layer="457" from-port="1" to-layer="458" to-port="0" />
		<edge from-layer="458" from-port="1" to-layer="465" to-port="0" />
		<edge from-layer="459" from-port="1" to-layer="460" to-port="0" />
		<edge from-layer="460" from-port="1" to-layer="461" to-port="0" />
		<edge from-layer="461" from-port="1" to-layer="465" to-port="1" />
		<edge from-layer="462" from-port="1" to-layer="463" to-port="0" />
		<edge from-layer="463" from-port="1" to-layer="464" to-port="0" />
		<edge from-layer="464" from-port="1" to-layer="465" to-port="2" />
		<edge from-layer="465" from-port="3" to-layer="466" to-port="0" />
		<edge from-layer="466" from-port="1" to-layer="467" to-port="0" />
		<edge from-layer="467" from-port="1" to-layer="468" to-port="0" />
		<edge from-layer="468" from-port="2" to-layer="469" to-port="0" />
		<edge from-layer="468" from-port="2" to-layer="471" to-port="1" />
		<edge from-layer="469" from-port="1" to-layer="470" to-port="0" />
		<edge from-layer="470" from-port="1" to-layer="471" to-port="0" />
		<edge from-layer="471" from-port="2" to-layer="472" to-port="0" />
		<edge from-layer="471" from-port="2" to-layer="489" to-port="1" />
		<edge from-layer="472" from-port="1" to-layer="473" to-port="0" />
		<edge from-layer="473" from-port="1" to-layer="474" to-port="0" />
		<edge from-layer="474" from-port="1" to-layer="475" to-port="0" />
		<edge from-layer="475" from-port="1" to-layer="476" to-port="0" />
		<edge from-layer="476" from-port="1" to-layer="477" to-port="0" />
		<edge from-layer="476" from-port="1" to-layer="480" to-port="0" />
		<edge from-layer="476" from-port="1" to-layer="483" to-port="0" />
		<edge from-layer="477" from-port="1" to-layer="478" to-port="0" />
		<edge from-layer="478" from-port="1" to-layer="479" to-port="0" />
		<edge from-layer="479" from-port="1" to-layer="486" to-port="0" />
		<edge from-layer="480" from-port="1" to-layer="481" to-port="0" />
		<edge from-layer="481" from-port="1" to-layer="482" to-port="0" />
		<edge from-layer="482" from-port="1" to-layer="486" to-port="1" />
		<edge from-layer="483" from-port="1" to-layer="484" to-port="0" />
		<edge from-layer="484" from-port="1" to-layer="485" to-port="0" />
		<edge from-layer="485" from-port="1" to-layer="486" to-port="2" />
		<edge from-layer="486" from-port="3" to-layer="487" to-port="0" />
		<edge from-layer="487" from-port="1" to-layer="488" to-port="0" />
		<edge from-layer="488" from-port="1" to-layer="489" to-port="0" />
		<edge from-layer="489" from-port="2" to-layer="490" to-port="0" />
		<edge from-layer="489" from-port="2" to-layer="492" to-port="1" />
		<edge from-layer="490" from-port="1" to-layer="491" to-port="0" />
		<edge from-layer="491" from-port="1" to-layer="492" to-port="0" />
		<edge from-layer="492" from-port="2" to-layer="493" to-port="0" />
		<edge from-layer="492" from-port="2" to-layer="510" to-port="1" />
		<edge from-layer="493" from-port="1" to-layer="494" to-port="0" />
		<edge from-layer="494" from-port="1" to-layer="495" to-port="0" />
		<edge from-layer="495" from-port="1" to-layer="496" to-port="0" />
		<edge from-layer="496" from-port="1" to-layer="497" to-port="0" />
		<edge from-layer="497" from-port="1" to-layer="498" to-port="0" />
		<edge from-layer="497" from-port="1" to-layer="504" to-port="0" />
		<edge from-layer="497" from-port="1" to-layer="501" to-port="0" />
		<edge from-layer="498" from-port="1" to-layer="499" to-port="0" />
		<edge from-layer="499" from-port="1" to-layer="500" to-port="0" />
		<edge from-layer="500" from-port="1" to-layer="507" to-port="0" />
		<edge from-layer="501" from-port="1" to-layer="502" to-port="0" />
		<edge from-layer="502" from-port="1" to-layer="503" to-port="0" />
		<edge from-layer="503" from-port="1" to-layer="507" to-port="1" />
		<edge from-layer="504" from-port="1" to-layer="505" to-port="0" />
		<edge from-layer="505" from-port="1" to-layer="506" to-port="0" />
		<edge from-layer="506" from-port="1" to-layer="507" to-port="2" />
		<edge from-layer="507" from-port="3" to-layer="508" to-port="0" />
		<edge from-layer="508" from-port="1" to-layer="509" to-port="0" />
		<edge from-layer="509" from-port="1" to-layer="510" to-port="0" />
		<edge from-layer="510" from-port="2" to-layer="511" to-port="0" />
		<edge from-layer="510" from-port="2" to-layer="513" to-port="1" />
		<edge from-layer="511" from-port="1" to-layer="512" to-port="0" />
		<edge from-layer="512" from-port="1" to-layer="513" to-port="0" />
		<edge from-layer="513" from-port="2" to-layer="514" to-port="0" />
		<edge from-layer="513" from-port="2" to-layer="531" to-port="1" />
		<edge from-layer="514" from-port="1" to-layer="515" to-port="0" />
		<edge from-layer="515" from-port="1" to-layer="516" to-port="0" />
		<edge from-layer="516" from-port="1" to-layer="517" to-port="0" />
		<edge from-layer="517" from-port="1" to-layer="518" to-port="0" />
		<edge from-layer="518" from-port="1" to-layer="519" to-port="0" />
		<edge from-layer="518" from-port="1" to-layer="522" to-port="0" />
		<edge from-layer="518" from-port="1" to-layer="525" to-port="0" />
		<edge from-layer="519" from-port="1" to-layer="520" to-port="0" />
		<edge from-layer="520" from-port="1" to-layer="521" to-port="0" />
		<edge from-layer="521" from-port="1" to-layer="528" to-port="0" />
		<edge from-layer="522" from-port="1" to-layer="523" to-port="0" />
		<edge from-layer="523" from-port="1" to-layer="524" to-port="0" />
		<edge from-layer="524" from-port="1" to-layer="528" to-port="1" />
		<edge from-layer="525" from-port="1" to-layer="526" to-port="0" />
		<edge from-layer="526" from-port="1" to-layer="527" to-port="0" />
		<edge from-layer="527" from-port="1" to-layer="528" to-port="2" />
		<edge from-layer="528" from-port="3" to-layer="529" to-port="0" />
		<edge from-layer="529" from-port="1" to-layer="530" to-port="0" />
		<edge from-layer="530" from-port="1" to-layer="531" to-port="0" />
		<edge from-layer="531" from-port="2" to-layer="532" to-port="0" />
		<edge from-layer="531" from-port="2" to-layer="534" to-port="1" />
		<edge from-layer="532" from-port="1" to-layer="533" to-port="0" />
		<edge from-layer="533" from-port="1" to-layer="534" to-port="0" />
		<edge from-layer="534" from-port="2" to-layer="535" to-port="0" />
		<edge from-layer="535" from-port="1" to-layer="536" to-port="0" />
		<edge from-layer="536" from-port="1" to-layer="537" to-port="0" />
		<edge from-layer="536" from-port="1" to-layer="547" to-port="0" />
		<edge from-layer="537" from-port="1" to-layer="538" to-port="0" />
		<edge from-layer="538" from-port="1" to-layer="539" to-port="0" />
		<edge from-layer="539" from-port="1" to-layer="540" to-port="0" />
		<edge from-layer="540" from-port="1" to-layer="541" to-port="0" />
		<edge from-layer="541" from-port="1" to-layer="542" to-port="0" />
		<edge from-layer="542" from-port="1" to-layer="543" to-port="0" />
		<edge from-layer="543" from-port="1" to-layer="544" to-port="0" />
		<edge from-layer="544" from-port="1" to-layer="545" to-port="0" />
		<edge from-layer="545" from-port="1" to-layer="546" to-port="0" />
		<edge from-layer="546" from-port="1" to-layer="549" to-port="0" />
		<edge from-layer="547" from-port="1" to-layer="548" to-port="0" />
		<edge from-layer="548" from-port="1" to-layer="549" to-port="1" />
		<edge from-layer="549" from-port="2" to-layer="550" to-port="0" />
		<edge from-layer="550" from-port="1" to-layer="551" to-port="0" />
		<edge from-layer="551" from-port="1" to-layer="552" to-port="0" />
		<edge from-layer="552" from-port="1" to-layer="553" to-port="0" />
		<edge from-layer="552" from-port="1" to-layer="592" to-port="0" />
		<edge from-layer="552" from-port="1" to-layer="632" to-port="0" />
		<edge from-layer="553" from-port="1" to-layer="554" to-port="0" />
		<edge from-layer="554" from-port="1" to-layer="555" to-port="0" />
		<edge from-layer="555" from-port="1" to-layer="556" to-port="0" />
		<edge from-layer="555" from-port="1" to-layer="560" to-port="1" />
		<edge from-layer="556" from-port="1" to-layer="557" to-port="0" />
		<edge from-layer="557" from-port="1" to-layer="558" to-port="0" />
		<edge from-layer="558" from-port="1" to-layer="559" to-port="0" />
		<edge from-layer="559" from-port="1" to-layer="560" to-port="0" />
		<edge from-layer="560" from-port="2" to-layer="561" to-port="0" />
		<edge from-layer="560" from-port="2" to-layer="565" to-port="1" />
		<edge from-layer="561" from-port="1" to-layer="562" to-port="0" />
		<edge from-layer="562" from-port="1" to-layer="563" to-port="0" />
		<edge from-layer="563" from-port="1" to-layer="564" to-port="0" />
		<edge from-layer="564" from-port="1" to-layer="565" to-port="0" />
		<edge from-layer="565" from-port="2" to-layer="566" to-port="0" />
		<edge from-layer="565" from-port="2" to-layer="596" to-port="0" />
		<edge from-layer="565" from-port="2" to-layer="636" to-port="0" />
		<edge from-layer="566" from-port="1" to-layer="567" to-port="0" />
		<edge from-layer="567" from-port="1" to-layer="568" to-port="0" />
		<edge from-layer="568" from-port="1" to-layer="569" to-port="0" />
		<edge from-layer="568" from-port="1" to-layer="573" to-port="1" />
		<edge from-layer="569" from-port="1" to-layer="570" to-port="0" />
		<edge from-layer="570" from-port="1" to-layer="571" to-port="0" />
		<edge from-layer="571" from-port="1" to-layer="572" to-port="0" />
		<edge from-layer="572" from-port="1" to-layer="573" to-port="0" />
		<edge from-layer="573" from-port="2" to-layer="578" to-port="1" />
		<edge from-layer="573" from-port="2" to-layer="574" to-port="0" />
		<edge from-layer="574" from-port="1" to-layer="575" to-port="0" />
		<edge from-layer="575" from-port="1" to-layer="576" to-port="0" />
		<edge from-layer="576" from-port="1" to-layer="577" to-port="0" />
		<edge from-layer="577" from-port="1" to-layer="578" to-port="0" />
		<edge from-layer="578" from-port="2" to-layer="579" to-port="0" />
		<edge from-layer="578" from-port="2" to-layer="645" to-port="0" />
		<edge from-layer="578" from-port="2" to-layer="605" to-port="0" />
		<edge from-layer="579" from-port="1" to-layer="580" to-port="0" />
		<edge from-layer="580" from-port="1" to-layer="581" to-port="0" />
		<edge from-layer="581" from-port="1" to-layer="582" to-port="0" />
		<edge from-layer="581" from-port="1" to-layer="586" to-port="1" />
		<edge from-layer="582" from-port="1" to-layer="583" to-port="0" />
		<edge from-layer="583" from-port="1" to-layer="584" to-port="0" />
		<edge from-layer="584" from-port="1" to-layer="585" to-port="0" />
		<edge from-layer="585" from-port="1" to-layer="586" to-port="0" />
		<edge from-layer="586" from-port="2" to-layer="587" to-port="0" />
		<edge from-layer="586" from-port="2" to-layer="591" to-port="1" />
		<edge from-layer="587" from-port="1" to-layer="588" to-port="0" />
		<edge from-layer="588" from-port="1" to-layer="589" to-port="0" />
		<edge from-layer="589" from-port="1" to-layer="590" to-port="0" />
		<edge from-layer="590" from-port="1" to-layer="591" to-port="0" />
		<edge from-layer="591" from-port="2" to-layer="622" to-port="0" />
		<edge from-layer="591" from-port="2" to-layer="654" to-port="0" />
		<edge from-layer="591" from-port="2" to-layer="614" to-port="0" />
		<edge from-layer="592" from-port="1" to-layer="593" to-port="0" />
		<edge from-layer="593" from-port="1" to-layer="594" to-port="0" />
		<edge from-layer="594" from-port="1" to-layer="595" to-port="0" />
		<edge from-layer="595" from-port="1" to-layer="596" to-port="1" />
		<edge from-layer="596" from-port="2" to-layer="597" to-port="0" />
		<edge from-layer="596" from-port="2" to-layer="601" to-port="1" />
		<edge from-layer="597" from-port="1" to-layer="598" to-port="0" />
		<edge from-layer="598" from-port="1" to-layer="599" to-port="0" />
		<edge from-layer="599" from-port="1" to-layer="600" to-port="0" />
		<edge from-layer="600" from-port="1" to-layer="601" to-port="0" />
		<edge from-layer="601" from-port="2" to-layer="602" to-port="0" />
		<edge from-layer="602" from-port="1" to-layer="603" to-port="0" />
		<edge from-layer="603" from-port="1" to-layer="604" to-port="0" />
		<edge from-layer="604" from-port="1" to-layer="605" to-port="1" />
		<edge from-layer="605" from-port="2" to-layer="606" to-port="0" />
		<edge from-layer="605" from-port="2" to-layer="610" to-port="1" />
		<edge from-layer="606" from-port="1" to-layer="607" to-port="0" />
		<edge from-layer="607" from-port="1" to-layer="608" to-port="0" />
		<edge from-layer="608" from-port="1" to-layer="609" to-port="0" />
		<edge from-layer="609" from-port="1" to-layer="610" to-port="0" />
		<edge from-layer="610" from-port="2" to-layer="611" to-port="0" />
		<edge from-layer="611" from-port="1" to-layer="612" to-port="0" />
		<edge from-layer="612" from-port="1" to-layer="613" to-port="0" />
		<edge from-layer="613" from-port="1" to-layer="614" to-port="1" />
		<edge from-layer="614" from-port="2" to-layer="615" to-port="0" />
		<edge from-layer="614" from-port="2" to-layer="619" to-port="1" />
		<edge from-layer="615" from-port="1" to-layer="616" to-port="0" />
		<edge from-layer="616" from-port="1" to-layer="617" to-port="0" />
		<edge from-layer="617" from-port="1" to-layer="618" to-port="0" />
		<edge from-layer="618" from-port="1" to-layer="619" to-port="0" />
		<edge from-layer="619" from-port="2" to-layer="620" to-port="0" />
		<edge from-layer="620" from-port="1" to-layer="621" to-port="0" />
		<edge from-layer="621" from-port="1" to-layer="626" to-port="0" />
		<edge from-layer="622" from-port="1" to-layer="623" to-port="0" />
		<edge from-layer="623" from-port="1" to-layer="624" to-port="0" />
		<edge from-layer="624" from-port="1" to-layer="625" to-port="0" />
		<edge from-layer="624" from-port="1" to-layer="662" to-port="0" />
		<edge from-layer="625" from-port="1" to-layer="626" to-port="1" />
		<edge from-layer="626" from-port="2" to-layer="627" to-port="0" />
		<edge from-layer="627" from-port="1" to-layer="628" to-port="0" />
		<edge from-layer="628" from-port="1" to-layer="629" to-port="0" />
		<edge from-layer="629" from-port="1" to-layer="630" to-port="0" />
		<edge from-layer="630" from-port="1" to-layer="631" to-port="0" />
		<edge from-layer="631" from-port="1" to-layer="670" to-port="0" />
		<edge from-layer="632" from-port="1" to-layer="633" to-port="0" />
		<edge from-layer="633" from-port="1" to-layer="634" to-port="0" />
		<edge from-layer="634" from-port="1" to-layer="635" to-port="0" />
		<edge from-layer="635" from-port="1" to-layer="636" to-port="1" />
		<edge from-layer="636" from-port="2" to-layer="637" to-port="0" />
		<edge from-layer="636" from-port="2" to-layer="641" to-port="1" />
		<edge from-layer="637" from-port="1" to-layer="638" to-port="0" />
		<edge from-layer="638" from-port="1" to-layer="639" to-port="0" />
		<edge from-layer="639" from-port="1" to-layer="640" to-port="0" />
		<edge from-layer="640" from-port="1" to-layer="641" to-port="0" />
		<edge from-layer="641" from-port="2" to-layer="642" to-port="0" />
		<edge from-layer="642" from-port="1" to-layer="643" to-port="0" />
		<edge from-layer="643" from-port="1" to-layer="644" to-port="0" />
		<edge from-layer="644" from-port="1" to-layer="645" to-port="1" />
		<edge from-layer="645" from-port="2" to-layer="646" to-port="0" />
		<edge from-layer="645" from-port="2" to-layer="650" to-port="1" />
		<edge from-layer="646" from-port="1" to-layer="647" to-port="0" />
		<edge from-layer="647" from-port="1" to-layer="648" to-port="0" />
		<edge from-layer="648" from-port="1" to-layer="649" to-port="0" />
		<edge from-layer="649" from-port="1" to-layer="650" to-port="0" />
		<edge from-layer="650" from-port="2" to-layer="651" to-port="0" />
		<edge from-layer="651" from-port="1" to-layer="652" to-port="0" />
		<edge from-layer="652" from-port="1" to-layer="653" to-port="0" />
		<edge from-layer="653" from-port="1" to-layer="654" to-port="1" />
		<edge from-layer="654" from-port="2" to-layer="655" to-port="0" />
		<edge from-layer="654" from-port="2" to-layer="659" to-port="1" />
		<edge from-layer="655" from-port="1" to-layer="656" to-port="0" />
		<edge from-layer="656" from-port="1" to-layer="657" to-port="0" />
		<edge from-layer="657" from-port="1" to-layer="658" to-port="0" />
		<edge from-layer="658" from-port="1" to-layer="659" to-port="0" />
		<edge from-layer="659" from-port="2" to-layer="660" to-port="0" />
		<edge from-layer="660" from-port="1" to-layer="661" to-port="0" />
		<edge from-layer="661" from-port="1" to-layer="663" to-port="0" />
		<edge from-layer="662" from-port="1" to-layer="663" to-port="1" />
		<edge from-layer="663" from-port="2" to-layer="664" to-port="0" />
		<edge from-layer="664" from-port="1" to-layer="665" to-port="0" />
		<edge from-layer="665" from-port="1" to-layer="666" to-port="0" />
		<edge from-layer="666" from-port="1" to-layer="667" to-port="0" />
		<edge from-layer="667" from-port="1" to-layer="668" to-port="0" />
		<edge from-layer="668" from-port="1" to-layer="669" to-port="0" />
	</edges>
	<rt_info />
</net>
